nets/value.pth (torch_old, 644037 bytes, 25 tensors)

a1.weight f4 [16, 5, 3, 3]
0	0xbe9ee152	-0.3103128
1	0xbe0a82d9	-0.13526477
2	0xbe0cf82b	-0.13766544
3	0xbdca63fb	-0.09882351
4	0xbd809414	-0.06278244
5	0x3e7bb13c	0.24579328
6	0xbdca2135	-0.09869615
7	0x3e420a5e	0.18949267
8	0x3cab53a4	0.020913906
9	0xbe5b6ba1	-0.21427776
10	0x3e637948	0.22214234
11	0x3d6066f2	0.054785676
12	0x3e9fe6b3	0.31230697
13	0xbe8bce2d	-0.27305737
14	0xbda84ca7	-0.08217745
15	0xbb79ea71	-0.0038134123
16	0xbea7edd8	-0.32798648
17	0x3e396bf7	0.18107592
18	0x3e3f5d6d	0.18687983
19	0xbdb0a66b	-0.08625492
20	0x3b3cf423	0.002883204
21	0xbe11272f	-0.14175104
22	0x3d94bef8	0.07262987
23	0xbd0d8474	-0.034550145
24	0x3d4bf77f	0.049796578
25	0xbe865d1c	-0.26242912
26	0x3dd4441e	0.10364555
27	0xbcdb6eac	-0.02678617
28	0x3e27b0aa	0.16375986
29	0x3ec0db05	0.376671
30	0xbe5ce9cb	-0.2157356
31	0x3d3aa06d	0.04556315
32	0xbdb430cd	-0.087983705
33	0xbd9cf0c8	-0.07663113
34	0x3e82a251	0.25514463
35	0xbdd4b7cc	-0.10386619
36	0xbd629f22	-0.055327542
37	0x3d3c2e0e	0.04594236
38	0xbd349146	-0.044083856
39	0x3dcdd826	0.10050993
40	0x3c585a32	0.013205098
41	0xbcfc24b1	-0.030779215
42	0xbcf2b180	-0.029625654
43	0xbd4b21ab	-0.049592655
44	0x3d544ad3	0.05182917
45	0x3b446d56	0.0029972396
46	0xbf03442f	-0.51275915
47	0xbdf41934	-0.119188696
48	0xbbd91db8	-0.006625857
49	0xbe8ba525	-0.27274433
50	0x3c91cbaf	0.01779732
51	0xbe6fd751	-0.2342198
52	0xbd0ffd6f	-0.035153802
53	0xbe910e50	-0.28331232
54	0x3c6df916	0.014524719
55	0xbe0881e4	-0.133308
56	0x3c8563dc	0.016282968
57	0xbd480aa0	-0.048838258
58	0x3e8a3c8c	0.2699932
59	0x3d0c295e	0.03421914
60	0x3da3136f	0.07962691
61	0x3d38f9b7	0.04516002
62	0x3c04f249	0.008114406
63	0xbe5783e8	-0.21046412
64	0xbd89b79c	-0.06724474
65	0xbdef58b1	-0.116868384
66	0xbe065ca5	-0.13121279
67	0x3e1b34fa	0.15156928
68	0xbd5c45cd	-0.053777505
69	0x3e5e1f76	0.21691689
70	0xbc487efa	-0.012237305
71	0x3d7a3194	0.061082438
72	0x3e5ae2e5	0.21375616
73	0x3e96376a	0.29339153
74	0x3e55b28a	0.20868888
75	0xbe629481	-0.22126962
76	0xbd82f8be	-0.063951
77	0x3e04876d	0.12942286
78	0xbd0343c5	-0.032047052
79	0x3defbc26	0.11705808
80	0x3d89be35	0.06725732
81	0xbc0d5584	-0.008626346
82	0x3cebe164	0.028793998
83	0xbd7c7a88	-0.061640292
84	0x3d56078e	0.0522533
85	0x3c46cf08	0.012134321
86	0xbd4f327b	-0.05058525
87	0x3d9db344	0.07700208
88	0xbe26c741	-0.16286947
89	0x3de01228	0.10940963
90	0xbe3c101f	-0.18365525
91	0x3d175a8d	0.03695159
92	0x3e2ddfd0	0.16979909
93	0xbcad1e18	-0.021132514
94	0x3e474a33	0.19461899
95	0x3e3104d0	0.17286992
96	0x3ebbe14e	0.3669533
97	0x3db9bc63	0.09069135
98	0x3c88d1cc	0.016701601
99	0xbeab1912	-0.33417565
100	0x3e028cb2	0.12748984
101	0x3e591023	0.21197562
102	0xbe34c13e	-0.17651841
103	0xbdafe463	-0.08588483
104	0x3daf4bc3	0.08559372
105	0xbe364bd0	-0.17802358
106	0xbdbbd681	-0.09171773
107	0xbc2cd35e	-0.010548441
108	0x3d4b233c	0.04959415
109	0xbdce63df	-0.10077643
110	0xbbe911da	-0.007112724
111	0xbd095c4f	-0.033535298
112	0xbd17f8ac	-0.037102386
113	0x3db995ea	0.09061797
114	0xbf0aba14	-0.5419018
115	0x3bded380	0.006800115
116	0xbd6d4e6a	-0.05793611
117	0xbeb6e1bb	-0.35719094
118	0xbdff5040	-0.12466478
119	0x3e47d83c	0.1951608
120	0xbe75f166	-0.24017867
121	0x3db5427a	0.0885057
122	0xbc0f1dc7	-0.008735127
123	0x3e677beb	0.22605865
124	0xbe05ab53	-0.13053636
125	0xbdcb032f	-0.099127166
126	0x3dd709bd	0.10499904
127	0x3d78e738	0.060767382
128	0xbd22ef3f	-0.039778944
129	0x3ca0e912	0.019642387
130	0xbdccdfe9	-0.10003645
131	0xbce3302b	-0.02773293
132	0xbc865956	-0.01640002
133	0x3db17943	0.08665707
134	0xbd8fbade	-0.07018064
135	0x3e42ae62	0.19011834
136	0x3c8563f6	0.016283017
137	0x3ce77f1b	0.02825885
138	0x3e14dd2e	0.14537498
139	0x3e78c701	0.24294664
140	0xbd87e6dd	-0.066358306
141	0x3d889594	0.06669155
142	0x3e16e5df	0.14736126
143	0x3e9ccd8d	0.30625573
144	0x3e209215	0.15680726
145	0x3df665be	0.120311245
146	0x3ca26f75	0.019828537
147	0x3d233970	0.0398497
148	0x3cca8b6f	0.02472469
149	0xbd0c725f	-0.03428876
150	0xbda49992	-0.08037104
151	0xbe4d5809	-0.20053114
152	0xbe9689e1	-0.29402068
153	0xbe2abc74	-0.16673452
154	0x3d4bb954	0.04973729
155	0x3e63b846	0.22238263
156	0xbdd6d728	-0.104902565
157	0xbcb968d8	-0.022633001
158	0x3e2007fa	0.15628043
159	0xbe1393cd	-0.1441185
160	0x3e3c9ff9	0.184204
161	0x3d866224	0.065616876
162	0x3e194ae9	0.14969982
163	0x3c30f287	0.0108000105
164	0xbec9d182	-0.39417654
165	0x3ccda030	0.025100797
166	0x3dcc9f6f	0.09991347
167	0x3d9fca67	0.07802277
168	0x3c326dfb	0.010890479
169	0x38134de8	3.5120087e-05
170	0x3c8b3884	0.016994722
171	0xbd91ae55	-0.07113329
172	0x3dba6457	0.091011696
173	0xbc31298d	-0.010813129
174	0xbd8222b4	-0.06354275
175	0x3d854c27	0.065086655
176	0x3c4ee83e	0.012628613
177	0xbc8b6cb9	-0.017019616
178	0x3bb4b91d	0.0055152313
179	0xbd308bfd	-0.043102253
180	0xbebb4ab8	-0.36580443
181	0xbe3e6765	-0.1859413
182	0xbc867f8f	-0.016418247
183	0xbe019a51	-0.12656523
184	0x3ce1bbb6	0.027555328
185	0xbe061644	-0.13094431
186	0xbe759a8d	-0.23984738
187	0xbd4763b1	-0.048679058
188	0xbd53181f	-0.051536676
189	0x3db76957	0.08955639
190	0xbe75b989	-0.23996557
191	0xbde468ac	-0.11152777
192	0x3e70eddd	0.23528238
193	0xbda90c77	-0.082543306
194	0x3e0558d5	0.13022168
195	0xbd68948f	-0.0567823
196	0x3d1a51ef	0.037675794
197	0xbe3fe45d	-0.18739457
198	0xbda98370	-0.08277023
199	0xbd610fce	-0.054946713
200	0x3eeb1a79	0.45918635
201	0x3e447b2d	0.19187613
202	0x3e0e8d01	0.13920976
203	0x3e8dea6d	0.27717915
204	0xbec68db3	-0.38779983
205	0x3e0196fb	0.1265525
206	0x3e34b1c7	0.17645942
207	0xbe1dcd73	-0.15410404
208	0xbe171263	-0.14753108
209	0x3d0f8817	0.035041895
210	0xbcbbe37b	-0.02293562
211	0xbd18ce63	-0.0373062
212	0x3e573525	0.21016367
213	0xbe40076b	-0.1875283
214	0xbdbc3994	-0.0919067
215	0xbe8a0e5c	-0.2696408
216	0xbcb93761	-0.022609415
217	0x3d9e5c5d	0.07732461
218	0xbd8f440f	-0.06995403
219	0x3c17a7f9	0.009256356
220	0xbd37be28	-0.04485908
221	0x3d0c0569	0.034184847
222	0x3c7a1a23	0.015265021
223	0x39705449	0.00022919582
224	0xbc9e72b1	-0.019341798
225	0xbe5b433e	-0.2141237
226	0x3e754782	0.2395306
227	0xbd9879a1	-0.07445074
228	0x3d890cf5	0.066919245
229	0x3df7717f	0.120821945
230	0x3e46a895	0.19400246
231	0x3d443fdd	0.047912467
232	0x3c62b460	0.01383695
233	0x3e73bd4f	0.23802684
234	0x3e5642f7	0.20923983
235	0x3da269f7	0.079303674
236	0x3d5c1bfb	0.05373762
237	0x3d42c2c0	0.04754901
238	0x3de277fd	0.11058042
239	0x3e200e05	0.15630348
240	0xbd7dfbf0	-0.062007844
241	0x3df32bc0	0.11873579
242	0xbe728869	-0.23684849
243	0x3dedd8cd	0.11613617
244	0x3ea92839	0.330385
245	0x3df742bc	0.120732754
246	0x3e43d633	0.1912468
247	0x3e1d75f0	0.15377021
248	0x3e748a50	0.23880887
249	0xbda1376b	-0.07871898
250	0xbd90443f	-0.07044267
251	0x3dee2d1e	0.11629699
252	0xbe840edd	-0.2579259
253	0xbdb21286	-0.08694939
254	0xbe4d7b79	-0.20066632
255	0xbe8c8d63	-0.2745162

a1.bias f4 [16]
0	0xbd86a27d	-0.06573961
1	0x3da3eb66	0.08003883
2	0xbdb216e1	-0.0869577
3	0xbe278ddb	-0.16362707
4	0xbbaf236a	-0.005344798
5	0xbc99ef78	-0.018790945
6	0x3db01f4e	0.08599721
7	0xbdc47249	-0.09592111
8	0x3dc51d7e	0.09624766
9	0xbe763740	-0.24044514
10	0xbd49c7f7	-0.049262967
11	0xbe1e1273	-0.15436725
12	0x3e1cbcae	0.1530635
13	0xbdbd14c0	-0.092324734
14	0xbe2c12d3	-0.16804056
15	0xbe2cab7d	-0.16862293

a2.weight f4 [16, 16, 3, 3]
0	0xbd9de5d6	-0.07709853
1	0xbe9684b9	-0.29398134
2	0xbdac9a41	-0.08427859
3	0xbcca680d	-0.024707818
4	0x3d855060	0.06509471
5	0xbddc57ea	-0.10758956
6	0x3db4522b	0.08804735
7	0x3d956d21	0.07296205
8	0x3e896f00	0.268425
9	0x3db4195a	0.08793898
10	0xbdd2c999	-0.10292358
11	0xbd8da001	-0.06915284
12	0x3d0c95ad	0.03432243
13	0x3d6d04a5	0.057865757
14	0x3e5628b4	0.20913965
15	0xbd851a6f	-0.064991824
16	0x3d48a662	0.0489868
17	0x3e333614	0.17501098
18	0x3e3d52e0	0.18488646
19	0x3badba5e	0.0053017577
20	0x3c777b6a	0.015105108
21	0xbd604347	-0.05475166
22	0xbe0c62ef	-0.13709615
23	0x3e1ac9ff	0.15116118
24	0x3d83a633	0.06428184
25	0x3bd012a6	0.0063498793
26	0xbdeb8b77	-0.1150121
27	0xbde2720d	-0.1105691
28	0x3de2900c	0.11062631
29	0x3d1a6463	0.037693392
30	0xbe7f97e9	-0.24960293
31	0xbe56deda	-0.20983449
32	0xbddb6a4d	-0.10713635
33	0xbd79c583	-0.060979377
34	0xbccf75a3	-0.025324648
35	0xbe68c20b	-0.22730272
36	0x3dfa236c	0.122137874
37	0x3cd820c3	0.02638281
38	0xbe0cbbc8	-0.13743508
39	0x3e35cc4c	0.17753714
40	0x3c26357f	0.01014459
41	0x3cd74aad	0.026280725
42	0xbe54bced	-0.20775194
43	0xbe787132	-0.2426193
44	0xbd70d433	-0.05879612
45	0xbe7319c7	-0.23740302
46	0x3d5f2f69	0.054488573
47	0x3d03e118	0.032197088
48	0xbe5e70d0	-0.21722722
49	0xbd5b6bf7	-0.05356976
50	0x3df46486	0.11933236
51	0x3ae84880	0.0017721802
52	0xbd5ba5c0	-0.05362487
53	0xbd714613	-0.05890472
54	0xbbf1ff87	-0.0073851976
55	0x3d052c13	0.032512736
56	0x3e700fb9	0.23443498
57	0xbe34a330	-0.17640376
58	0xbd54c3c3	-0.051944505
59	0xbd906493	-0.07050433
60	0xbd6f537a	-0.05842922
61	0xbdb4b89b	-0.08824273
62	0x3cd23aa9	0.025662737
63	0xbd461da9	-0.04836813
64	0xbcaa403f	-0.020782588
65	0x3d978a0f	0.073993795
66	0xbdc5df9b	-0.0966179
67	0x3d888832	0.06666602
68	0xbdb44de7	-0.08803921
69	0x3dc1c3a9	0.09461147
70	0x3e3bf773	0.18356113
71	0x3e07d00d	0.13262959
72	0xbe3993e6	-0.18122825
73	0x3cc7bf61	0.024383249
74	0xbbf0f95d	-0.007353945
75	0xbec46c68	-0.38363957
76	0x3db39530	0.0876869
77	0xbdda9bfa	-0.106742814
78	0xbccfcd50	-0.025366455
79	0x3e1e6239	0.15467156
80	0xbdd84100	-0.10559273
81	0xbe4363b0	-0.19080997
82	0xbe237f4a	-0.15966526
83	0x3dd58bef	0.10427081
84	0x3d62beae	0.055357628
85	0xbd14db37	-0.036341872
86	0xbd4aef4c	-0.049544618
87	0x3bcbfa92	0.0062249387
88	0xbd91e8f1	-0.07124508
89	0xbe6452e2	-0.22297242
90	0x3e34e032	0.17663649
91	0x3bcc8017	0.0062408554
92	0x3e0c309e	0.13690421
93	0xbcf469aa	-0.02983554
94	0x3d810e76	0.06301586
95	0xbc4f1aa9	-0.012640634
96	0x3e7b0e5d	0.24517198
97	0x3e10fd1b	0.14159052
98	0x3e04033f	0.12891863
99	0xbd991129	-0.07473976
100	0xbe3bd01a	-0.18341103
101	0xbdafec47	-0.08589988
102	0xbe1a8167	-0.15088426
103	0xbdcf77c0	-0.101302624
104	0x3a9abeb6	0.0011806104
105	0x3cac9bdd	0.021070415
106	0xbd02fe98	-0.03198108
107	0xbe0b2cc7	-0.135913
108	0xbdfaefd5	-0.122527756
109	0xbe00a004	-0.12561041
110	0xbd145eed	-0.03622334
111	0xbe239499	-0.15974654
112	0xbbad6d9e	-0.0052926084
113	0x3e0f695b	0.14005034
114	0xbccfa8ac	-0.025348984
115	0x3d8cc481	0.06873418
116	0x3d20319d	0.039109815
117	0x3c91bd8c	0.017790578
118	0x3e9492c3	0.2901822
119	0x3d10e9f9	0.035379384
120	0x3e12277d	0.14272876
121	0x3d3443b4	0.04400988
122	0xbdd382a5	-0.10327653
123	0x3e6e2457	0.2325605
124	0x3df82846	0.121170565
125	0x3d0d394a	0.034478463
126	0xbc54a59c	-0.0129789375
127	0x3d941bea	0.07231887
128	0xbbb12eb2	-0.005407178
129	0x3dca493a	0.09877248
130	0x3e590dfd	0.21196742
131	0xbe563dd2	-0.2092202
132	0xbdda2f44	-0.106535465
133	0x3be81e34	0.0070836786
134	0x3d9abfc6	0.07556109
135	0x3dc630b2	0.09677257
136	0xbce3f6b0	-0.02782759
137	0x3db6baca	0.08922346
138	0x3ea5a7e6	0.3235466
139	0xbdde8d7a	-0.10866828
140	0x3daf1797	0.08549421
141	0xbc5dd258	-0.013538919
142	0x3dd84e43	0.10561802
143	0xbd9006da	-0.07032557
144	0xbe03716e	-0.12836239
145	0x3dc3fc80	0.09569645
146	0xbe87a27a	-0.26491147
147	0xbdbe342c	-0.09287295
148	0x3d35b598	0.044362634
149	0x3e0f92c3	0.14020829
150	0x3cf3746c	0.0297186
151	0xbe88360d	-0.26603737
152	0xbbc8552b	-0.0061136684
153	0xbd6ab7b7	-0.05730411
154	0xbdfac447	-0.12244468
155	0x3d676ecd	0.056502152
156	0x3e036342	0.12830833
157	0x3d17105c	0.036880836
158	0xbdad790e	-0.08470355
159	0xbd977847	-0.07395988
160	0x3d488a91	0.048960272
161	0x3d0221c6	0.03177049
162	0x3d907cdc	0.07055065
163	0x3c08825f	0.008331864
164	0x3d8bcf84	0.0682669
165	0x3e3cb7b8	0.18429458
166	0x3d1a61aa	0.037690796
167	0xbd8e6b86	-0.06954102
168	0x3d880471	0.06641472
169	0xbd5f00df	-0.05444419
170	0x3e6465e1	0.22304489
171	0xbd348417	-0.044071283
172	0x3d49fead	0.049315143
173	0x3c64b6f4	0.013959635
174	0x3e3212f9	0.1739005
175	0x3ce5629d	0.028001124
176	0xbd602b7a	-0.054728962
177	0xbcf5d52b	-0.030008873
178	0xbc88c2bd	-0.016694421
179	0xbe3abc86	-0.18235978
180	0xbda77001	-0.0817566
181	0xbe199d37	-0.15001379
182	0x3dd0b788	0.10191256
183	0xbde0af41	-0.10970927
184	0x3e410080	0.18847847
185	0xbe76d22e	-0.24103615
186	0xbeb65baa	-0.3561681
187	0x3b75455e	0.003742538
188	0x3c1131c9	0.008861967
189	0x3dd42232	0.10358085
190	0x3d8f3543	0.06992581
191	0xbe5e1751	-0.21688582
192	0xbd13f28a	-0.036119975
193	0x3d9eb49f	0.077492945
194	0x3d3e99b0	0.046533287
195	0xbce5f310	-0.028070003
196	0xbd61634e	-0.055026345
197	0xbe0723d6	-0.13197264
198	0x3d8bcbdb	0.06825992
199	0xbe2fe578	-0.17177379
200	0xbced4957	-0.028965635
201	0xbd3b9be5	-0.04580297
202	0xbd8d53b1	-0.069007285
203	0x3d3b7c3e	0.045772783
204	0x3d60b58e	0.054860644
205	0xbe56d532	-0.20979765
206	0x3e2377fe	0.15963742
207	0x3c1844cf	0.009293749
208	0x3ca3f318	0.020013377
209	0xbca33f25	-0.01992757
210	0x3e5a3fdc	0.21313423
211	0x3c9beeab	0.019034704
212	0xbe233767	-0.15939103
213	0x3d519dd2	0.0511759
214	0x3d6b145b	0.05739246
215	0x3ca1b156	0.01973788
216	0xbb4dddee	-0.0031412798
217	0xbca593f4	-0.020212151
218	0xbeaf9371	-0.34292176
219	0xbe21583d	-0.15756316
220	0xbdd69efb	-0.10479542
221	0xbc0a088e	-0.008424891
222	0x3e566aa6	0.2093912
223	0x3dbd4f53	0.092436455
224	0x3e45d6df	0.19320248
225	0xbcb8c2be	-0.022553798
226	0x3e5307f1	0.20608498
227	0x3d3992b8	0.045305938
228	0x3dfa98a2	0.12236144
229	0xbde6eb10	-0.11275303
230	0x3e21ccb0	0.15800738
231	0xbe135f39	-0.14391793
232	0x3c32d5ee	0.010915263
233	0xbe4e1614	-0.2012561
234	0xbe43f3a3	-0.19135909
235	0x3e586ebf	0.21135996
236	0x3d048cd8	0.03236088
237	0xbe64ab1f	-0.22330903
238	0xbe1593ec	-0.14607209
239	0xbdb6acc8	-0.08919674
240	0xbc2ef838	-0.010679297
241	0x3dd60b44	0.104513675
242	0xbdd64f40	-0.104643345
243	0xbbf99d29	-0.007617612
244	0x3d8b5828	0.06803924
245	0x3d8a70aa	0.0675977
246	0xbe1a4f9d	-0.15069433
247	0x3dc7e9fa	0.09761424
248	0xbde17e73	-0.110104464
249	0x3e2fe6a3	0.17177825
250	0xbe81702c	-0.25280893
251	0xbcb19b1f	-0.021680413
252	0xbd16ca97	-0.0368143
253	0xbdac241c	-0.08405325
254	0x3e291dda	0.16515294
255	0x3dc0225d	0.09381554

a2.bias f4 [16]
0	0x3da23a61	0.07921291
1	0x3dd05b4c	0.101736635
2	0x3d86d08f	0.06582748
3	0x3e01222d	0.12610693
4	0x3da86ca3	0.08223846
5	0x3db18388	0.08667666
6	0x3e3b159d	0.18269964
7	0xbe15467f	-0.14577673
8	0xbd4e65be	-0.050389998
9	0xbc4ff663	-0.0126930205
10	0xbd127fdb	-0.035766464
11	0xbe195c79	-0.14976682
12	0x3d912df5	0.07088844
13	0xbd97f384	-0.07419494
14	0xbce3e0e7	-0.027817203
15	0xbbabe6b6	-0.0052460087

a3.weight f4 [32, 16, 3, 3]
0	0x3ca6f1a0	0.020378888
1	0xbdcc9c66	-0.09990768
2	0xbda92c42	-0.08260395
3	0x3dc8a8c4	0.097978145
4	0xbda5eeb1	-0.081021674
5	0xbce66e62	-0.028128807
6	0xbd789085	-0.0606847
7	0xbdc8f8b3	-0.098130606
8	0x3cde7110	0.027153522
9	0xbe846882	-0.25860983
10	0xbe064977	-0.13113962
11	0xbd4cdffb	-0.050018292
12	0x3d19493d	0.03742336
13	0x3c93d9d4	0.018048204
14	0x3d1793a4	0.037006035
15	0xbd7786b1	-0.060431186
16	0x3df8ced6	0.12148826
17	0xbcc618c5	-0.024181733
18	0xbbbcdeb3	-0.0057638525
19	0xbc873c15	-0.016508142
20	0x3e342590	0.17592454
21	0x3e13dde0	0.14440107
22	0xbd59baec	-0.05315678
23	0x3e19dc8c	0.15025538
24	0x3e115eb3	0.14196281
25	0xbe233cde	-0.15941188
26	0xbd49ac55	-0.049236614
27	0x3cf856a9	0.03031476
28	0x3de5c7ff	0.11219787
29	0x3e13dc19	0.1443943
30	0x3e064d42	0.13115409
31	0xbd5c6c72	-0.05381436
32	0x3d9e0766	0.07716255
33	0x3dd505ab	0.10401472
34	0x3deb5985	0.11491684
35	0x3e346914	0.17618209
36	0xbe13cd03	-0.14433675
37	0x3d96c0a5	0.07360963
38	0x3db4fbe5	0.088371076
39	0x3d877ebc	0.066159695
40	0x3e0ff634	0.14058763
41	0x3ddd01bd	0.10791347
42	0x3dcabe60	0.098995924
43	0x3d78d060	0.060745597
44	0xba769985	-0.00094070315
45	0x3d98775d	0.07444642
46	0x3e25022c	0.1611411
47	0x3cc4454c	0.023958825
48	0x3da52c6f	0.08065116
49	0x3c66854a	0.0140698645
50	0x3d945b28	0.07243949
51	0xbe743bf2	-0.23850992
52	0xbe542bf2	-0.20719889
53	0xbe713e0c	-0.23558825
54	0x3c78a47b	0.015175934
55	0x3d8bec49	0.06832177
56	0x3cbc8589	0.023012893
57	0xbd8a0b54	-0.06740442
58	0xbe30f67e	-0.1728153
59	0xbdbe27f8	-0.09284967
60	0x3e4fc88d	0.20291348
61	0x3d0bf3cc	0.03416805
62	0x3da7ba1e	0.08189796
63	0x3cfc3b05	0.030789861
64	0xbd94a676	-0.072583124
65	0xbcf50063	-0.029907411
66	0xbd952e53	-0.07284226
67	0x3b3c12a9	0.0028697646
68	0xbd2800f4	-0.041016534
69	0xbce207c4	-0.027591594
70	0x3cd9534d	0.026528979
71	0xbd025110	-0.03181559
72	0x3de0da14	0.10979095
73	0xbb3e8518	-0.002907103
74	0x3d4b14ec	0.0495805
75	0x3bb39fce	0.0054816967
76	0x3dd63ffe	0.10461424
77	0x3e82e81b	0.25567707
78	0xbe93ad68	-0.28843236
79	0xbc95e406	-0.018297207
80	0xbd51391b	-0.05107985
81	0x3ddbcf6c	0.10732922
82	0xbddab2b3	-0.106786154
83	0x3d9aba78	0.07555097
84	0xbd2040ec	-0.039124414
85	0x3db7ec9e	0.08980678
86	0x3d5b4d30	0.05354041
87	0x3e26eae8	0.16300547
88	0x3de01f4f	0.10943472
89	0xbc42b2a2	-0.01188341
90	0xbe2ddf75	-0.16979773
91	0x3d3c5c53	0.045986485
92	0xbc6fd797	-0.014638803
93	0xbd1ef03a	-0.038803317
94	0xbe916099	-0.2839401
95	0xbd5515f3	-0.052022886
96	0x3d28baf7	0.04119393
97	0xbc848a44	-0.016179211
98	0xbc399fcb	-0.0113296015
99	0xbc68169a	-0.014165545
100	0xbcdce0d4	-0.026962675
101	0x3e0c519c	0.13703007
102	0x3ec7f4dd	0.39054003
103	0xbe0433c4	-0.12910372
104	0xbc27cc04	-0.010241512
105	0x3c133029	0.00898365
106	0x3d83f54b	0.0644327
107	0x3e3b7b8f	0.18308853
108	0x3d2a2146	0.04153564
109	0x3c6b7aec	0.014372569
110	0x3d7f4aaf	0.062327083
111	0x3d39577c	0.045249447
112	0x3dc34887	0.09535318
113	0xbe01c2c4	-0.12671953
114	0xbd918c60	-0.071068525
115	0x3d460276	0.04834219
116	0x3c233e7b	0.009963627
117	0x3d09d8aa	0.033653893
118	0x3e4fbb5c	0.20286316
119	0xbd4dc6b2	-0.05023832
120	0x3c81afdd	0.015830928
121	0xbdb19704	-0.08671382
122	0x3dadaa76	0.084797785
123	0xbdca98e1	-0.098924406
124	0x3e555b50	0.20835614
125	0xbe54bc68	-0.20774996
126	0xbd044dfc	-0.032300934
127	0xbe097395	-0.13422997
128	0x3d5e93e2	0.05434025
129	0xbd7913d3	-0.06080992
130	0xbd68ba4f	-0.056818303
131	0x3e06a3ed	0.1314847
132	0xbe4d713e	-0.2006273
133	0xbe8d9529	-0.27652863
134	0x3e800950	0.25007105
135	0x3dc6701a	0.096893504
136	0xbd72d10d	-0.059281398
137	0x3d81b86c	0.06334004
138	0xbe03b1d5	-0.12860806
139	0xbdbf83b8	-0.09351295
140	0x3dac0348	0.08399063
141	0x3d035a5d	0.0320686
142	0xbdcbb74e	-0.09947072
143	0x3d14cb7d	0.036326874
144	0xbd52d91b	-0.05147658
145	0xbd401fd4	-0.046905354
146	0xbe0faf3e	-0.14031693
147	0xbd2fdd2a	-0.042935528
148	0x3d1e0124	0.038575307
149	0xbd1097ac	-0.035300896
150	0x3d230ae5	0.03980531
151	0x3d88e206	0.066837355
152	0xbc39ab01	-0.011332274
153	0xbddfbb47	-0.10924392
154	0x3d0c1238	0.034197062
155	0x3d35adef	0.04435533
156	0xbd6b1a36	-0.057398044
157	0xbdff802c	-0.12475619
158	0xbd0624df	-0.032750007
159	0xbd99f796	-0.075179264
160	0x3c5a2dcb	0.013316582
161	0xbde88353	-0.11353173
162	0x3c4cc307	0.01249767
163	0xbdaeba8d	-0.085316755
164	0xbde7b433	-0.11313667
165	0xbc9046f8	-0.017611966
166	0xbd9dfb82	-0.07713987
167	0xbdc833e2	-0.09775521
168	0x3b1d0435	0.0023958806
169	0x3d5a417c	0.053285107
170	0xbe019729	-0.1265532
171	0x3aa318f4	0.001244335
172	0xbd77a9c2	-0.060464628
173	0x3d0ceb79	0.03440425
174	0xbdbad130	-0.091219306
175	0xbd0b912e	-0.034074
176	0xbd773169	-0.060349856
177	0xbd504439	-0.050846312
178	0x3b0e380f	0.0021700894
179	0xbd92551b	-0.07145139
180	0x3c7233bb	0.014782841
181	0xbcf11a1a	-0.029431392
182	0xbd2a7919	-0.041619394
183	0xbcf65671	-0.030070515
184	0x3c6c6a0f	0.014429583
185	0x3c818862	0.015812103
186	0xbd84cdfa	-0.064845994
187	0xbd5c4c46	-0.053783678
188	0xbdffcf0f	-0.12490665
189	0xbcf55ba3	-0.029950922
190	0x3cd0a035	0.025467018
191	0xbc6d7c4e	-0.014494969
192	0x3cfa22b5	0.030534128
193	0xbdbbc2c3	-0.09168007
194	0xbdf77294	-0.12082401
195	0xbd41ec5c	-0.04734455
196	0x3c786713	0.015161294
197	0xbdd2d162	-0.10293843
198	0x3d3af6dc	0.04564558
199	0x3c6aefca	0.014339397
200	0xbda97cc2	-0.08275749
201	0xbd93dfe6	-0.072204396
202	0xbdfbfd69	-0.123041935
203	0xbe080e96	-0.13286814
204	0xbda2435b	-0.07923003
205	0xba47d69a	-0.00076232257
206	0x3a48ab77	0.0007654945
207	0xbc934b1a	-0.017980147
208	0xbc5aa76e	-0.013345582
209	0xbd2b9803	-0.041893017
210	0xbd98acef	-0.074548595
211	0xbc038be0	-0.008028954
212	0x3c151b16	0.009100696
213	0xbd0a7980	-0.033807278
214	0x3d06be89	0.032896552
215	0x3d9ead88	0.07747942
216	0xbd9210c7	-0.07132106
217	0xbda7f617	-0.08201235
218	0xbd3bdc7c	-0.045864567
219	0xbe00ddf2	-0.12584665
220	0xbd9f9237	-0.0779156
221	0x3d8f2884	0.069901496
222	0x3baffc8b	0.0053706816
223	0xbd4a021f	-0.04931843
224	0xbddd9284	-0.10818961
225	0xbc283924	-0.01026753
226	0xbd9fc3cc	-0.07801017
227	0x3b216366	0.0024625896
228	0xbe0fd030	-0.14044261
229	0xbd7af881	-0.061272148
230	0xbd3f2a7e	-0.046671383
231	0xbe07c498	-0.13258588
232	0xbce4b557	-0.0279185
233	0xbd5b89ca	-0.053598203
234	0xbcf98951	-0.030460985
235	0xbabc39b0	-0.0014360454
236	0xbe13f80d	-0.14450093
237	0x3d17a585	0.037023086
238	0x3c22fe90	0.009948388
239	0xbdaaadcb	-0.0833393
240	0x3cd486df	0.025943218
241	0x3c8f88e5	0.017521331
242	0xbd68336b	-0.05668966
243	0x3d68f39e	0.056872956
244	0xbcf45890	-0.029827386
245	0x3d87e134	0.06634751
246	0xbca02b09	-0.01955177
247	0xbd912220	-0.07086587
248	0xbd104717	-0.035224047
249	0xbc8d9f26	-0.017287802
250	0xbd355ca6	-0.04427781
251	0x3bac4651	0.005257406
252	0xbd2d9255	-0.04237588
253	0xbc06caf7	-0.0082271015
254	0x3d0e21f5	0.034700353
255	0x3cf9a9fc	0.030476563

a3.bias f4 [32]
0	0xbc8f8fc2	-0.017524604
1	0xbcffc3e4	-0.031221338
2	0xbd234b5f	-0.0398668
3	0x3dd324fc	0.103097886
4	0xbd4348c3	-0.047676813
5	0xbd2eb3b4	-0.042651847
6	0xbdd57291	-0.104222424
7	0xbbecddd9	-0.0072285947
8	0xbdbb6a05	-0.09151081
9	0x3d240107	0.040040042
10	0x3cff1030	0.031135648
11	0x3b3a4060	0.0028419718
12	0xbc7e4676	-0.015519729
13	0xbdd360bf	-0.10321187
14	0xbc6770a7	-0.0141259795
15	0xbdc4198e	-0.09575187
16	0xbd502587	-0.05081704
17	0xbdb8dc54	-0.09026399
18	0x3d9daa9a	0.07698555
19	0xbded22ed	-0.11578927
20	0xbdbcc319	-0.092168994
21	0xbdb9b475	-0.090676226
22	0xbdcbeccd	-0.099572755
23	0xbd3ed23b	-0.04658721
24	0xbddc5685	-0.1075869
25	0x3d5f3121	0.054490212
26	0xbcd03e5c	-0.02542036
27	0xbd5a242f	-0.053257164
28	0xbdb6f8ae	-0.08934151
29	0xbddb08d9	-0.10695047
30	0xbd78a14a	-0.060700692
31	0x3cbd565a	0.023112465

b1.weight f4 [32, 32, 3, 3]
0	0x3dab82e2	0.08374573
1	0xbd316ee0	-0.04331863
2	0x3d761eb9	0.060087893
3	0x3cd2ef9c	0.02574902
4	0x3e380f50	0.17974591
5	0xbbde4aac	-0.006783804
6	0xbe3c2ec5	-0.18377216
7	0xbe193bf9	-0.14964284
8	0xbd91cdf3	-0.0711936
9	0x3d59f424	0.053211346
10	0xbcf391ed	-0.029732669
11	0xbd1e0b96	-0.038585268
12	0x3d4a5f4d	0.049407292
13	0xbd75c0c1	-0.059998278
14	0x3d8b6689	0.068066664
15	0x3da06b6a	0.078329876
16	0xbb691c1e	-0.0035569738
17	0xbd04cf3c	-0.032424197
18	0xbbb29312	-0.005449661
19	0x3bc53ff3	0.006019586
20	0x3bab92a7	0.005235988
21	0xbd4922e1	-0.04910553
22	0x3e5db599	0.21651305
23	0x3e0a2cbf	0.13493632
24	0x3e27c7c6	0.16384801
25	0xbdbb34bd	-0.091409184
26	0xbde2c53b	-0.11072775
27	0x3cb6e047	0.02232374
28	0x3ddb634f	0.10712301
29	0x3bdb174e	0.0066861277
30	0xbdbc8169	-0.092043705
31	0x3e07759e	0.13228461
32	0x3dc17e08	0.09447867
33	0x3c0ac677	0.008470169
34	0xbc1f150a	-0.009709606
35	0xbe13630f	-0.14393257
36	0xbdbdd221	-0.092685945
37	0x3e0e3696	0.1388801
38	0xbd94161a	-0.07230778
39	0x3d80e703	0.06294062
40	0x3d9a532f	0.07535397
41	0xbc62efda	-0.01385113
42	0x3de2ede3	0.110805295
43	0x3e2c5c8d	0.1683218
44	0xbe06caa8	-0.13163245
45	0xbe30c07f	-0.17260931
46	0x3bf7ed4c	0.00756613
47	0x3cae0953	0.02124468
48	0x39c7f6ca	0.0003814011
49	0x3e25ede9	0.16204037
50	0xbdc7e9dd	-0.09761403
51	0x3dbde025	0.09271268
52	0x3e17acbe	0.1481199
53	0x3c8d0e5f	0.017218767
54	0x3e1fe7ea	0.15615812
55	0xbca9495f	-0.020664869
56	0xbea90de0	-0.33018398
57	0xbc3609af	-0.011110707
58	0x3e4df5d3	0.20113306
59	0xbe861fc1	-0.261961
60	0x3db8d699	0.09025306
61	0x3df991e9	0.12186033
62	0xbcd7eb8d	-0.026357437
63	0xbcc9071f	-0.024539528
64	0xbe6f3b28	-0.2336241
65	0xbdbb5c47	-0.0914846
66	0x3dac4f27	0.084135346
67	0xbe841a69	-0.258014
68	0xbdfd1ed2	-0.12359394
69	0xbd89f9b3	-0.067370795
70	0x3e401c8e	0.18760893
71	0x3bef33ad	0.0072998614
72	0x3dd0b031	0.10189856
73	0x3e8e3b9b	0.2777985
74	0x3d312b6a	0.043254294
75	0xbd4d0daa	-0.05006186
76	0xbe7194bf	-0.23591898
77	0xbd6dd5b9	-0.05806515
78	0x3e0d4104	0.13794333
79	0xbe076092	-0.13220432
80	0x3dbf3de4	0.093379766
81	0x3e157cbf	0.14598368
82	0x3d3df7cb	0.046378892
83	0x3e5659d4	0.20932704
84	0x3dc9ad94	0.098475605
85	0xbbfb959f	-0.0076777483
86	0x3dafb7e2	0.08579995
87	0x3da67253	0.08127274
88	0xbc7a88da	-0.015291417
89	0xbd975001	-0.073883064
90	0x3c97e52f	0.0185419
91	0x3d1db068	0.038498312
92	0x3e21df31	0.15807797
93	0xbdb5fc2c	-0.088859886
94	0x3d33318a	0.043748416
95	0xbcc269a2	-0.02373201
96	0x3d890580	0.06690502
97	0x3e84cec3	0.25938997
98	0xbd08b50a	-0.033375777
99	0x3c2291e9	0.009922483
100	0xbd49a054	-0.049225166
101	0xbe40ed42	-0.18840507
102	0xbde5656e	-0.11200987
103	0xbe59cec3	-0.2127028
104	0xbe460b91	-0.1934035
105	0x3d541fcc	0.051788136
106	0x3cd2af0a	0.02571823
107	0xbd0ac2e3	-0.033877265
108	0xbd48eb49	-0.04905251
109	0xbd835542	-0.06412746
110	0xbc8f2380	-0.017472982
111	0xbeb90422	-0.36135966
112	0xbdc918b3	-0.09819164
113	0x3e04b810	0.1296084
114	0xbe683d51	-0.2267964
115	0xbe094a34	-0.13407212
116	0xbe666bda	-0.2250208
117	0xbc27d2a1	-0.010243089
118	0xbd96b381	-0.073584564
119	0xbe6fadbb	-0.23406117
120	0x3d2e9893	0.042625975
121	0x3c921ad1	0.017835053
122	0x3d45783f	0.04821038
123	0xbdf8c3ce	-0.12146722
124	0xbd7bfeba	-0.061522223
125	0x3d7db6b5	0.06194182
126	0x3de7063e	0.112804875
127	0xbe41d464	-0.18928677
128	0xbe0d4f33	-0.13799743
129	0xbdee4089	-0.11633403
130	0x3d3e5e73	0.046476793
131	0xbde530d9	-0.111909576
132	0x3dbe5431	0.09293402
133	0xbb6802e9	-0.0035402125
134	0xbe3f87ce	-0.18704149
135	0xbc27cfdf	-0.010242431
136	0xbd075e63	-0.033049
137	0xbc9ac203	-0.01889134
138	0x3b84d754	0.0040539894
139	0xbd52deb4	-0.051481918
140	0x3d922793	0.071364544
141	0x3d2b7a4e	0.041864686
142	0xbbcbda2d	-0.006221077
143	0x3c767f07	0.015044934
144	0xbd87bc6d	-0.06627736
145	0xbccb9068	-0.024849132
146	0x3cefbcc6	0.029264819
147	0xbd9cae93	-0.07650485
148	0xbcec5d85	-0.028853187
149	0x3cd3fee4	0.025878377
150	0x3d81646b	0.06317981
151	0xbcafe89c	-0.021473221
152	0xbbccd528	-0.006250996
153	0xbd2be343	-0.04196478
154	0xbe0fa3c0	-0.1402731
155	0x3e525d76	0.20543465
156	0xbe437059	-0.19085826
157	0x3d8b2592	0.06794275
158	0x3d148ee9	0.036269102
159	0x3d22e77e	0.03977155
160	0xbdf16400	-0.117866516
161	0xbd1d4847	-0.038399007
162	0x3d59d2b8	0.053179473
163	0x3d758894	0.059944704
164	0x3e848b51	0.2588754
165	0x3d3b6296	0.045748316
166	0x3dc0ce03	0.094142936
167	0x3d480ea3	0.048842084
168	0xbd8e7023	-0.06954982
169	0x3dfd6aa0	0.12373853
170	0x3dd92ecc	0.10604629
171	0xbd8ac629	-0.06776077
172	0xbd3156e2	-0.04329575
173	0x3d41157b	0.047139626
174	0x3d7e213f	0.062043425
175	0x3d3d65b2	0.046239562
176	0x3c5a070d	0.013307345
177	0xbd8537ba	-0.065047696
178	0x3b65f6d3	0.0035089746
179	0xbc6539e0	-0.013990849
180	0xbc8b404e	-0.016998436
181	0x3a2bd3f6	0.0006554717
182	0xbce03586	-0.027369272
183	0x3c125ad4	0.008932788
184	0xbd31954b	-0.043355267
185	0xbd879ef4	-0.06622115
186	0xbd8b0814	-0.0678865
187	0x3cdad206	0.026711475
188	0x39add5bb	0.00033156373
189	0x3d28eb7d	0.041240204
190	0x3caf9c45	0.02143682
191	0xbce7bc80	-0.028288126
192	0x3d3943fc	0.04523085
193	0x3d3cbec4	0.046080366
194	0xbba03af3	-0.00488984
195	0x3d38389d	0.044975866
196	0x3cf09f63	0.029372877
197	0x3ce6b719	0.02816348
198	0xbd9e57b0	-0.07731569
199	0xbd3fe6bf	-0.046850916
200	0x3cdc3f51	0.02688566
201	0x3d0eb9eb	0.034845274
202	0x3cd1f728	0.025630549
203	0xbcff4b33	-0.031163787
204	0x3c39268c	0.011300694
205	0x3cf7e512	0.030260596
206	0xbc0c9fc4	-0.008583013
207	0xbded0fb3	-0.1157526
208	0x3e0c2926	0.13687572
209	0xbc8c6bcd	-0.017141247
210	0xbd7136a7	-0.05889001
211	0xbdece18d	-0.11566458
212	0x3dc04941	0.09388972
213	0xbd995c82	-0.074883476
214	0xbe085ecb	-0.1331741
215	0xbd2fd61f	-0.04292881
216	0xbd22bf59	-0.039733265
217	0x3d214387	0.03937104
218	0x3d0cf3a2	0.034412034
219	0xbc9a3e7a	-0.01882862
220	0xbbdd197f	-0.006747424
221	0x3c19aacf	0.009379103
222	0xbd88e9e0	-0.06685233
223	0x3cc35d1f	0.023848115
224	0x3c3d3f57	0.011550746
225	0xbe4b4181	-0.19849207
226	0x3d825521	0.06363893
227	0xbe2d360a	-0.16915146
228	0x3dff7c98	0.12474936
229	0xbc73e420	-0.014885932
230	0x3d628d29	0.055310402
231	0xbd3a4856	-0.04547914
232	0xbdac8a41	-0.08424807
233	0xbe399b87	-0.18125735
234	0xbe34e444	-0.17665201
235	0xbe80c73f	-0.25152013
236	0x3d3fe929	0.04685322
237	0xbd90a757	-0.070631675
238	0xbda985a2	-0.082774416
239	0x3e294aa2	0.16532376
240	0x3e067b8c	0.13133067
241	0x3e18a01c	0.14904827
242	0x3e654663	0.22390132
243	0xbce99dae	-0.02851757
244	0xbd8de176	-0.06927769
245	0x3c912b7f	0.017720936
246	0x3bd79047	0.0065784785
247	0x3bf0f2ea	0.0073531764
248	0xbd14fcc0	-0.036373854
249	0xbb264a42	-0.002537385
250	0xbcdf3451	-0.027246626
251	0xbd087b6a	-0.03332082
252	0x3d37cebd	0.044874895
253	0xbd0949ea	-0.033517756
254	0xbcdac445	-0.026704917
255	0xbcf50f91	-0.02991465

b1.bias f4 [32]
0	0xbc49bd97	-0.012313268
1	0xbdc7349d	-0.09726832
2	0xbc6b0c61	-0.014346213
3	0xbd938220	-0.07202554
4	0xbd86cd0a	-0.06582077
5	0xbcc6af38	-0.024253473
6	0xbdd7b757	-0.10533016
7	0x3caf520b	0.021401426
8	0xbd25c6e0	-0.040472865
9	0xbdc2c12a	-0.09509499
10	0xbde2f462	-0.110817686
11	0x3d0ecdd3	0.034864258
12	0x3d3489ba	0.04407666
13	0xbdd96411	-0.10614789
14	0xbd98f862	-0.0746925
15	0xbc0baf02	-0.008525612
16	0x3ca816e5	0.02051873
17	0xbd00a03e	-0.03140282
18	0x3c604310	0.013687864
19	0xbd557d88	-0.05212167
20	0xbd3f0013	-0.04663093
21	0x3d45874c	0.048224732
22	0x3bc8ebfd	0.0061316476
23	0x39b7ee7a	0.0003508216
24	0x3c96784b	0.018367907
25	0xbd87231d	-0.06598494
26	0x3c9ce95e	0.019154247
27	0x3ae0cea6	0.001715143
28	0xbd3f7d08	-0.0467501
29	0xbd94d391	-0.072669156
30	0x3cbe58c3	0.023235684
31	0xbd7daeef	-0.061934408

b2.weight f4 [32, 32, 3, 3]
0	0x3cb2ec2f	0.021841137
1	0xbd2392d0	-0.039934933
2	0x3cf131ea	0.029442746
3	0xbcc0a797	-0.023517413
4	0x3d181b36	0.037135325
5	0xbcd5bcab	-0.02609094
6	0xbd2fb038	-0.042892665
7	0xbdb304fe	-0.087411866
8	0x3dc7570a	0.09733398
9	0x3d591bd7	0.053005066
10	0x3d3c4189	0.045960937
11	0xbcd05544	-0.025431283
12	0x3c49edba	0.012324745
13	0x3d9b48d9	0.07582254
14	0xbcf33da6	-0.029692482
15	0xbd2264fd	-0.03964709
16	0x3b9c7de8	0.0047757514
17	0xbd426b9e	-0.047465913
18	0x3d989ca6	0.07451753
19	0xbd0b330b	-0.033984225
20	0x3d6d772f	0.05797499
21	0xbc059f2f	-0.008155628
22	0xbda201b0	-0.07910478
23	0xbdb5f51b	-0.08884641
24	0xbdfe5b37	-0.124197416
25	0x3c4d36f5	0.01252531
26	0xbdb90c9b	-0.090356074
27	0xbbd9633e	-0.006634145
28	0xbd0174ad	-0.03160541
29	0xbd01b8f4	-0.031670526
30	0xbd6242f9	-0.05523965
31	0xbd0a84cf	-0.033818062
32	0xbd0bef37	-0.03416368
33	0xba25803d	-0.00063133595
34	0xbc7c9826	-0.015417134
35	0xbcb56348	-0.022142068
36	0xbc6dd2b5	-0.0145155685
37	0xbc6ef35f	-0.014584391
38	0x3d9b4087	0.07580667
39	0x3bab325d	0.0052245096
40	0xbd1d7844	-0.038444772
41	0xbd628827	-0.055305626
42	0xbd806bc1	-0.062705524
43	0xbd180812	-0.03711707
44	0x3d2b570e	0.04183107
45	0x3b47453c	0.0030406257
46	0xbd06688d	-0.03281455
47	0xbd908820	-0.07057214
48	0x3d99cfaf	0.075103156
49	0x3ca2c0cd	0.019867325
50	0x3b122266	0.0022298335
51	0x3cd9045d	0.026491338
52	0xbd83f887	-0.06443887
53	0x3cfd6c47	0.03093542
54	0x3b9c8a38	0.004777219
55	0xbd5832f5	-0.05278297
56	0xbd551f05	-0.052031536
57	0x3bcdfe4b	0.0062864176
58	0x3c1d9604	0.009618286
59	0x3cb92a5a	0.022603203
60	0x3cc56572	0.024096224
61	0xbd276023	-0.040863167
62	0x3b808ed8	0.0039232783
63	0xbd3f96cf	-0.04677468
64	0xbcd14d05	-0.025549421
65	0x3c95b928	0.018276766
66	0xbda0c6eb	-0.078504406
67	0xbd9b0efe	-0.07571219
68	0xbc29186e	-0.010320766
69	0xbd45bbf5	-0.048274953
70	0xbd7a9417	-0.061176386
71	0xbd906990	-0.070513844
72	0xbcfd5038	-0.03092204
73	0x3c3a8c94	0.0113860555
74	0x3c5946cc	0.013261508
75	0x3d3865b7	0.045018878
76	0xbd166378	-0.036715955
77	0x3d0400a7	0.032227185
78	0x3d3ab037	0.045578208
79	0xbc3b5348	-0.01143343
80	0xbc0c0c80	-0.008547902
81	0x3cf53106	0.029930603
82	0xbd66e9d3	-0.056375336
83	0xbd30825d	-0.043093074
84	0x3d305442	0.043049105
85	0xbaf0e975	-0.0018380122
86	0x3cbe4f92	0.023231301
87	0x3cb73b5a	0.022367168
88	0x3c633f99	0.013870143
89	0xbcc32dee	-0.023825612
90	0x3be211d9	0.0068991003
91	0xbd340ba9	-0.043956432
92	0xbc23a373	-0.0099877
93	0xbd1b21f8	-0.037874192
94	0xbcd10091	-0.025512965
95	0x3c0c7a1c	0.008574035
96	0xb88887ee	-6.510304e-05
97	0xbc5fe244	-0.013664786
98	0xbd9a6b18	-0.07539958
99	0xba7efdb6	-0.0009727137
100	0xbdb9b09d	-0.090668894
101	0xbc53fab6	-0.012938192
102	0xbd37f262	-0.04490889
103	0xbce2445e	-0.02762049
104	0xbca47463	-0.020075029
105	0x3cd54cf7	0.026037676
106	0x3c9581d4	0.018250383
107	0xba979d39	-0.0011567242
108	0x3ddaf33d	0.10690925
109	0x3c854a7b	0.016270867
110	0x3c586a49	0.013208934
111	0xbe0daa5a	-0.13834515
112	0xbd825245	-0.06363348
113	0xbd28948d	-0.041157294
114	0xbddfa2c1	-0.10919715
115	0xbccd0caf	-0.025030462
116	0xbc25b049	-0.01011283
117	0x3d9290ad	0.07156501
118	0x3cfc3f11	0.030791791
119	0xbd2b2194	-0.04178007
120	0xbd7e3611	-0.06206328
121	0xbdb2e128	-0.087343514
122	0x3d4b2988	0.049600154
123	0xbce81a37	-0.028332813
124	0xbcc919a1	-0.024548354
125	0xbc67f0ef	-0.014156564
126	0xbb6d523c	-0.0036212346
127	0xbc4c58c9	-0.01247234
128	0x3cc9feb3	0.024657583
129	0x3d353e6a	0.044248976
130	0xbce72aa0	-0.028218567
131	0x3c338c34	0.01095872
132	0x3ccf7b8f	0.025327472
133	0x3a89aaee	0.0010503212
134	0xbd1b60dd	-0.037934173
135	0x3bbf741c	0.0058426987
136	0x3d4eeeb8	0.05052063
137	0xbdaea387	-0.08527284
138	0xbdd43548	-0.10361725
139	0x3c0529d8	0.008127652
140	0x3aaf97b3	0.001339665
141	0xbd594b2a	-0.053050198
142	0xbd63fea6	-0.055662774
143	0xbd6c00f8	-0.05761811
144	0x3be53c85	0.00699574
145	0xbbc381de	-0.005966409
146	0xbd523d21	-0.05132783
147	0xbc36d9c7	-0.011160321
148	0xbc50f749	-0.01275427
149	0xbca5325d	-0.020165617
150	0xbd6718ec	-0.05642025
151	0x3d34c4d4	0.044133022
152	0x3c27f6fe	0.010251759
153	0x3cdc1567	0.026865674
154	0xbc5a980e	-0.013341917
155	0xbd0cacbf	-0.03434443
156	0xbd0eda85	-0.034876365
157	0xbd92c881	-0.07167149
158	0xbd22f631	-0.039785568
159	0xbc091c30	-0.008368537
160	0x3c88b668	0.01668854
161	0xbd4437e3	-0.04790486
162	0xbd1267a6	-0.035743378
163	0xbd4021c3	-0.046907198
164	0x3c743339	0.014904791
165	0x3d5d9b9b	0.054103475
166	0xbce037f6	-0.027370434
167	0x3cd54750	0.026034981
168	0xbd5a3b89	-0.053279433
169	0xbdda89de	-0.10670827
170	0xbcf7c884	-0.03024698
171	0x3d59c1a3	0.053163182
172	0xbd66b8a6	-0.05632844
173	0xbc9a248c	-0.018816255
174	0x3c8d18d0	0.017223746
175	0x3d097459	0.033558223
176	0xbd11a99e	-0.03556215
177	0x3c785291	0.015156404
178	0xbd58c659	-0.052923534
179	0xbd044b67	-0.03229847
180	0x3ca7dfd0	0.020492464
181	0x3c4530ae	0.012035532
182	0x3b306cf0	0.00269204
183	0xbd4e58da	-0.050377704
184	0xbdcfca1e	-0.10145973
185	0xbd43d35e	-0.047808997
186	0x3cc1049f	0.023561774
187	0x3d0dab06	0.03458693
188	0x3d02d668	0.031942755
189	0x3d95296d	0.07283292
190	0xbc049289	-0.008091577
191	0xbd3b9015	-0.045791704
192	0xbc9e6be1	-0.01933855
193	0xbd315c77	-0.043301072
194	0xbadd9132	-0.0016904233
195	0x3c6305f6	0.013856402
196	0xbd39894d	-0.045296956
197	0x3d64a45e	0.055820815
198	0xbd02ae82	-0.031904705
199	0xbe038d28	-0.12846816
200	0xbc4eef8f	-0.012630357
201	0x3b8eeacc	0.004361486
202	0x3c86a025	0.016433785
203	0xbcfdec8b	-0.030996582
204	0xbd371f0e	-0.04470735
205	0xbdbb336a	-0.09140666
206	0xbce89771	-0.028392525
207	0x3ba63176	0.005071814
208	0x3c5f20a2	0.01361862
209	0xbd7b26ec	-0.061316416
210	0xbdf420fd	-0.119203545
211	0xbdce8100	-0.100831985
212	0xbdbd6dc1	-0.092494495
213	0xbd17605e	-0.036957137
214	0xbd95c57a	-0.07313056
215	0xbcc7b11a	-0.02437644
216	0xbdb4594c	-0.088060945
217	0xbd935132	-0.07193221
218	0x3dbbf720	0.09177995
219	0xbd9ae7f6	-0.07563774
220	0xbd4a1dab	-0.0493447
221	0xbd5b9745	-0.05361106
222	0x3d0e61bf	0.034761187
223	0xbd623448	-0.05522564
224	0xbd879ae5	-0.06621341
225	0x3d042b7d	0.032268036
226	0xbd86d970	-0.06584442
227	0x3bd31703	0.006441952
228	0xbdac116b	-0.0840176
229	0xbdc5cbd1	-0.096580155
230	0xbd97afdc	-0.074065894
231	0x3cb08af5	0.021550635
232	0xbc482c1c	-0.012217548
233	0xbca2edc9	-0.019888775
234	0xbdb30cc2	-0.08742668
235	0xbdae9d4d	-0.085260965
236	0xbc111b86	-0.00885666
237	0xbb05ad2b	-0.0020397406
238	0xbd4402cc	-0.04785423
239	0xbce708f9	-0.02820252
240	0xbd154378	-0.036441296
241	0xbc4010f3	-0.011722791
242	0xbd5edef3	-0.05441184
243	0xbc4ce84f	-0.012506559
244	0xbd53bd61	-0.051694278
245	0x3cf5ea0e	0.030018833
246	0xbdbb330b	-0.09140595
247	0xbcd2b920	-0.02572304
248	0xbda9665f	-0.08271479
249	0x3c91777f	0.017757175
250	0xbd979fcf	-0.07403528
251	0x3bf0d1c3	0.0073492243
252	0x3d97c751	0.074110635
253	0xbde004c9	-0.10938413
254	0xbdaea735	-0.08527986
255	0xbc50310b	-0.012707005

b2.bias f4 [32]
0	0xbd73abc2	-0.059489973
1	0x3d6e2892	0.05814416
2	0xbd98f575	-0.07468692
3	0x3ad32ea9	0.0016111928
4	0xbc8fab50	-0.017537743
5	0xbcd4bd04	-0.025969036
6	0xbd519a08	-0.051172286
7	0xbdca53b9	-0.0987925
8	0xbdeff621	-0.11716867
9	0x3b510eca	0.0031899684
10	0xbd89a3cc	-0.06720695
11	0xbd856224	-0.065128595
12	0x3d58299c	0.052774057
13	0x3b1126c9	0.0022148362
14	0xbcc1d924	-0.023663111
15	0xbcbb61fa	-0.022873867
16	0xbda3c6e3	-0.07996919
17	0xbd4a14bd	-0.049336184
18	0xbde00a96	-0.10939519
19	0xbd76f0e5	-0.06028833
20	0x3db09c59	0.08623571
21	0xbdc42bc0	-0.09578657
22	0x3c5e5189	0.013569244
23	0xbd8e011f	-0.069338076
24	0xbbc7d440	-0.0060983
25	0xbde31032	-0.110870734
26	0xbdad41cd	-0.08459816
27	0x3cb087aa	0.021549065
28	0xbd705ec1	-0.058684114
29	0xbd3d01e8	-0.046144396
30	0xbc49d12c	-0.012317937
31	0x3d279fb8	0.040923804

b3.weight f4 [64, 32, 3, 3]
0	0x3c2c6916	0.010523101
1	0xbd186622	-0.037206776
2	0x3d391ac4	0.04519154
3	0xbc870e78	-0.016486391
4	0xbd338c12	-0.043834753
5	0x3c5c0db1	0.013430999
6	0x3a9216b3	0.0011145681
7	0x3b190b42	0.0023352657
8	0xbd4f5114	-0.05061443
9	0x3dde0020	0.108398676
10	0x3c8d7308	0.017266765
11	0xbe123157	-0.14276634
12	0xbd0ffec6	-0.03515508
13	0xbcfe3227	-0.031029774
14	0x3dfd5d0e	0.123712644
15	0xbdfbd7d6	-0.12297027
16	0xbda9ac87	-0.0828486
17	0x3d4b7788	0.04967454
18	0xbd9a02e6	-0.07520084
19	0xbcb8329c	-0.02248507
20	0xbb2790a0	-0.002556838
21	0xbca093ae	-0.01960167
22	0x3b0a76d0	0.0021127947
23	0x3ce5b396	0.028039735
24	0x3c3704ec	0.011170607
25	0x3ce12d2f	0.027487366
26	0x3cea1a85	0.028577099
27	0xbdb294f8	-0.0871982
28	0x3e918e1d	0.28428736
29	0xbe30266d	-0.17202158
30	0xbdfc5a1e	-0.12321876
31	0x3d2aad51	0.041669194
32	0xbcc2471e	-0.023715552
33	0xbe12d94f	-0.14340709
34	0x3d849059	0.06472845
35	0xbcb0eb7e	-0.021596666
36	0xbcb6cf96	-0.022315782
37	0xbd2477ce	-0.040153317
38	0xbe31c584	-0.17360502
39	0x3d8af770	0.06785476
40	0xbde1bc25	-0.11022214
41	0x3da6003a	0.08105512
42	0xbd57c766	-0.052680396
43	0xbd9cd013	-0.076568745
44	0xbd2e8047	-0.042602804
45	0x3dbe063a	0.092785314
46	0x3bbbf010	0.005735405
47	0xbc8006b0	-0.015628189
48	0x3db3c24f	0.08777296
49	0x3c135a7f	0.008993744
50	0x3e3746ab	0.17898051
51	0xbe1e1a20	-0.15439653
52	0x3c07cdd8	0.008288823
53	0xbcf3b19c	-0.029747777
54	0xbd07c703	-0.033148777
55	0xbd4214eb	-0.04738323
56	0x3cad0615	0.021121064
57	0xbbc89bdf	-0.006122097
58	0x3a9ed59a	0.0012118102
59	0x3c30c7a0	0.010789782
60	0xbb42c0f8	-0.002971707
61	0x3c80394f	0.015652327
62	0xbc940916	-0.018070739
63	0x3d46e9e5	0.048562903
64	0x3d263be5	0.040584464
65	0xbbc892dc	-0.0061210226
66	0xbbc09f24	-0.005878346
67	0x38c90a00	9.5862895e-05
68	0xbba74fe7	-0.0051059606
69	0x3cfa81d6	0.030579489
70	0xbb70e3f0	-0.0036756955
71	0x3c52dd2f	0.012870117
72	0xbc0b1644	-0.008489195
73	0x3a4eae80	0.0007884279
74	0x3d30980f	0.043113764
75	0xbbdc3b0a	-0.006720905
76	0x3d8ed559	0.069742866
77	0xbcd04da9	-0.025427656
78	0x3d5a60f7	0.05331513
79	0x3c418706	0.011811977
80	0xbcd1de5c	-0.025618725
81	0xbbfe1693	-0.007754156
82	0xbdac3ba2	-0.084098116
83	0xbe167c4f	-0.14695857
84	0x3e16f730	0.14742732
85	0x3ceed473	0.029154038
86	0xbd9f472f	-0.07777249
87	0xbd9728e5	-0.07380847
88	0xbd19a4c2	-0.03751064
89	0x3e338dcd	0.17534561
90	0x3d376bf3	0.044780683
91	0xbcf67d00	-0.030088902
92	0x3d5d9b31	0.05410308
93	0xbcf09a85	-0.029370556
94	0x3cffd5c7	0.031229867
95	0x3d1205bb	0.035649996
96	0xbc7bbaac	-0.01536433
97	0xbd57efce	-0.05271893
98	0xbd3e3aac	-0.046442673
99	0x3ce223b1	0.02760491
100	0xbd371c15	-0.044704515
101	0xbc822a06	-0.015889179
102	0x3cec933d	0.028878802
103	0x3c74572d	0.014913362
104	0x3d56e45d	0.052463878
105	0x3d3ed60e	0.046590857
106	0xbc09de21	-0.008414776
107	0xbcac1b4a	-0.021009106
108	0x3de12686	0.10993676
109	0xbdb8f5af	-0.090312354
110	0xbdcf1b3f	-0.10112619
111	0xbe238cf2	-0.15971735
112	0x3dcec886	0.100968406
113	0x3dd75006	0.1051331
114	0xbdaa77bd	-0.083236195
115	0x3b42081a	0.002960688
116	0x3d8e917c	0.06961343
117	0x3d913773	0.07090654
118	0x3e0ce2d3	0.13758402
119	0x3e814793	0.2524992
120	0x3e681cf7	0.22667299
121	0xbd4d0639	-0.050054763
122	0x3c11b01f	0.008892088
123	0xbd25e93d	-0.040505636
124	0x3dbce493	0.092232846
125	0xbe1850d0	-0.14874578
126	0x3e8e213b	0.27759728
127	0x3e43040a	0.1904451
128	0x3e26f03f	0.16302584
129	0xbc09ca53	-0.008410054
130	0xbe03acc0	-0.12858868
131	0x3d499b44	0.04922034
132	0x3dc80018	0.09765643
133	0x3dd15781	0.10221768
134	0x3e3478c7	0.17624198
135	0xbcb32974	-0.021870352
136	0xbca49670	-0.020091265
137	0xbd9963fd	-0.074897744
138	0xbd148577	-0.036260094
139	0x3dd0ddd1	0.10198558
140	0x3c86bc01	0.01644707
141	0xbdb2c151	-0.087282784
142	0x3d13d6bd	0.036093462
143	0x3dc4c94b	0.09608706
144	0xbc86433a	-0.016389478
145	0xbc271a42	-0.010199131
146	0xbcdf9461	-0.027292432
147	0x3c4a3e33	0.012343931
148	0xbd2f4bca	-0.042796887
149	0x3d5e66b3	0.05429716
150	0xbd0aca84	-0.03388454
151	0x3b834af8	0.0040067397
152	0x3cb7e17a	0.022446383
153	0xbd197535	-0.037465293
154	0x3acfe99a	0.0015862465
155	0xbd843fcd	-0.064574815
156	0xbd0f641d	-0.035007585
157	0xbbd11d76	-0.006381686
158	0x3d35dc7e	0.04439973
159	0xbb0037e0	-0.0019564554
160	0xbd334ac2	-0.043772466
161	0xbd82a125	-0.06378392
162	0x3d123f07	0.03570464
163	0x3d2a77e7	0.041618254
164	0xbccc5770	-0.024944037
165	0x3d0b8537	0.03406259
166	0x3cce78a2	0.025204007
167	0x3bb06f61	0.005384371
168	0xbcdf339c	-0.027246289
169	0x3cc0cebb	0.023536077
170	0xbd0020d6	-0.031281315
171	0xbc7cdaa6	-0.015432989
172	0x3c6925ac	0.014230173
173	0x3d3efe08	0.04662898
174	0xbd60f547	-0.054921415
175	0x3d53cb9b	0.051707845
176	0x3c098ac8	0.008394904
177	0x3cc7fec3	0.024413472
178	0xbc5168b4	-0.012781311
179	0x3d66cbe7	0.0563468
180	0xbcf5ab80	-0.029989004
181	0x3d1773c8	0.036975652
182	0x3d927287	0.071507506
183	0x3d198554	0.037480667
184	0xbcba0e26	-0.022711825
185	0xbd26d091	-0.04072625
186	0x3e604daa	0.21904626
187	0xbe35066a	-0.17678228
188	0xbd5d4f88	-0.054030925
189	0xbd2199da	-0.039453365
190	0x3c9053e0	0.01761812
191	0x3c713344	0.014721695
192	0xbb4e39b1	-0.0031467492
193	0xbd0fc67c	-0.0351014
194	0x3cb5b5bb	0.022181382
195	0xbd211605	-0.03932764
196	0x3d9b7a3f	0.07591676
197	0xbc870a85	-0.016484508
198	0x3dee0585	0.116221465
199	0x3cfaaeeb	0.030600986
200	0xbe151895	-0.14560159
201	0xbd74a3f0	-0.059726655
202	0x3caac481	0.020845653
203	0x3e48e640	0.19619083
204	0xbcf9891b	-0.030460885
205	0xbe2a8923	-0.16653876
206	0xbe158601	-0.146019
207	0xbc7430c5	-0.014904206
208	0x3c54a6a0	0.01297918
209	0x3ca49617	0.0200911
210	0xbba089be	-0.0048992326
211	0xbca954c0	-0.020670295
212	0x3c3172e1	0.010830612
213	0x3d39f9c7	0.04540422
214	0xbd313b9f	-0.04326975
215	0xbd3c3de6	-0.04595747
216	0x3d978286	0.07397942
217	0x3c51259a	0.012765313
218	0x3d9f48fa	0.07777591
219	0x3c667da3	0.01406804
220	0xbd728be6	-0.05921545
221	0x3df5ec7b	0.12007996
222	0x3e361f6c	0.17785424
223	0x3cc79cc9	0.024366753
224	0x3c8739f6	0.01650713
225	0xbc728a3e	-0.014803467
226	0xbb8072db	-0.003919942
227	0xbd2cd431	-0.04219455
228	0xbd4d024b	-0.050051015
229	0xbd29f6dd	-0.041495193
230	0x3d568911	0.05237681
231	0xbce2ecdd	-0.027700836
232	0xbcbb20c0	-0.022842765
233	0x3d65b9ab	0.05608527
234	0x3d16da82	0.03682948
235	0x3d8b2529	0.06794197
236	0x3d1037c5	0.035209436
237	0x3c1475bb	0.009061272
238	0xbd26ccb1	-0.040722553
239	0xbe1dd7fe	-0.15414426
240	0x3d899566	0.067179486
241	0x3d58b9ed	0.052911688
242	0x3d857484	0.06516364
243	0xbcaf0948	-0.02136673
244	0xbde107e3	-0.109878324
245	0xbd998724	-0.07496479
246	0xbc8670c8	-0.0164112
247	0x3e0b20d4	0.13586742
248	0x3d4f2da5	0.05058064
249	0x3ddc6c9f	0.10762905
250	0x3dd08680	0.10181904
251	0x3d352144	0.044221178
252	0xbcd5f2be	-0.026116725
253	0x3d13df11	0.036101405
254	0x3d764b59	0.06013045
255	0x3d0c9fa1	0.03433192

b3.bias f4 [64]
0	0x3cc9570a	0.024577636
1	0xbcdde4ec	-0.027086698
2	0xbc95a1a9	-0.018265562
3	0x3d34e9a8	0.044168144
4	0x3cc6dc45	0.024274955
5	0xbd8cdd6c	-0.0687817
6	0xbc318ddd	-0.0108370455
7	0xbcc7bf96	-0.024383347
8	0x3d3a72c9	0.045519624
9	0x3c53966d	0.012914282
10	0x3d1b8807	0.037971523
11	0xbcccfb94	-0.025022306
12	0xb964320e	-0.00021762421
13	0xbd69b945	-0.057061452
14	0xbd9d8e92	-0.07693209
15	0xbd825b36	-0.06365053
16	0x3c664779	0.014055126
17	0xbd7ef9fc	-0.062250122
18	0xbda657e0	-0.081222296
19	0xbd20f307	-0.03929427
20	0xbd0551bd	-0.032548655
21	0xb96cc43b	-0.00022579815
22	0x3d72e534	0.059300616
23	0xbd82ffc2	-0.06396438
24	0xbdae9d84	-0.085261375
25	0x3ccc279f	0.024921237
26	0xbd3450b4	-0.044022277
27	0xbcc0e187	-0.02354504
28	0xbd218da8	-0.039441735
29	0xbd0b0264	-0.033937827
30	0x3d460a18	0.04834947
31	0x3d59787a	0.05309341
32	0x3bb7cfbc	0.0056094807
33	0xbd921ea8	-0.071347535
34	0x3ae80041	0.0017700271
35	0x3d7f946d	0.06239741
36	0x3ad2e538	0.0016090041
37	0x3d13702a	0.03599564
38	0xbdaf78f6	-0.08567993
39	0xbd0f85e6	-0.035039805
40	0x3d37107d	0.04469346
41	0x3b93c1f8	0.004509207
42	0x3cda8fb5	0.026679853
43	0xbca72470	-0.020403117
44	0x3d03d57f	0.032186028
45	0xbc986325	-0.018601963
46	0xbd5c228c	-0.053743884
47	0xbc88e76c	-0.016711913
48	0xbde2cb82	-0.11073972
49	0x3b099bf8	0.0020997506
50	0xbd863812	-0.06553663
51	0x3d826645	0.063671626
52	0x3cfe2d21	0.031027379
53	0xbd731a8d	-0.059351493
54	0xbc8ec459	-0.01742761
55	0xbd3df52d	-0.046376396
56	0xbbc0d366	-0.0058845757
57	0xbc9b4ef2	-0.018958542
58	0xbd17f271	-0.037096445
59	0xbda0599e	-0.07829593
60	0xbd1f19f2	-0.038843103
61	0x3d6f0e90	0.058363497
62	0xbd74cb51	-0.05976421
63	0x3ca9ef96	0.020744126
