nets/value.pth (torch_old, 644037 bytes, 25 tensors)

a1.weight f4 [16, 5, 3, 3]
0	0x3d1f92f5	0.03895851
1	0x3bdad5ae	0.0066783046
2	0xbf50e391	-0.8159724
3	0x3d9f5702	0.07780267
4	0xbe977321	-0.29580024
5	0x3e4160d2	0.1888459
6	0x3e27ae79	0.1637515
7	0xbfb8963b	-1.4420847
8	0xbd1344c3	-0.03595425
9	0xbd347ab9	-0.04406235
10	0x3ea9380b	0.3305057
11	0xbe501331	-0.20319821
12	0x3eb66a7f	0.35628125
13	0xbf2dfdd6	-0.6796545
14	0x3e0ee367	0.13953935
15	0xbeb6664c	-0.3562492
16	0xbdec83c8	-0.11548573
17	0xbe8c41d2	-0.27393967
18	0x3dc569b5	0.09639303
19	0x3d8af6cb	0.06785353
20	0x3eb27686	0.3485605
21	0xbebf7b68	-0.3739884
22	0x3d9fc7a3	0.078017496
23	0xbdc1fa29	-0.094715424
24	0x3e6e4250	0.23267484
25	0xbf0b6d34	-0.54463506
26	0xbe80f473	-0.251865
27	0xbecc07cb	-0.39849696
28	0xbe33f34d	-0.1757328
29	0xbdff55c6	-0.12467532
30	0x3e9d70c4	0.30750096
31	0x3dc2701f	0.09494042
32	0xbf2ff5c9	-0.68734413
33	0x3c0fa83b	0.008768137
34	0x3f1c719c	0.61110854
35	0xbe272a31	-0.16324688
36	0xbd1bb3ee	-0.03801339
37	0x3d085a4d	0.033289243
38	0x3abef312	0.001456829
39	0xbd651fea	-0.05593864
40	0x3b862768	0.004094053
41	0x3dc826a1	0.09772993
42	0x3deae30b	0.11469086
43	0xbc450f96	-0.012027642
44	0xbe169426	-0.14704952
45	0xbdeea938	-0.1165337
46	0x3ef939a2	0.48676783
47	0x3e7d7573	0.24751835
48	0x3e90ca16	0.2827918
49	0x3e50e9a2	0.20401624
50	0xbca2abab	-0.019857248
51	0x3de47af9	0.11156268
52	0xbe4faaa9	-0.20279945
53	0x3f2257c7	0.6341519
54	0xbdc76d2f	-0.09737622
55	0x3d2bb305	0.041918773
56	0x3e73131e	0.23737761
57	0x3d97dda3	0.07415321
58	0x3caaca87	0.020848526
59	0xbd71ae10	-0.05900389
60	0xbdcdaf4d	-0.100432016
61	0xbee14cd3	-0.44003925
62	0xbe81893a	-0.25300008
63	0x3ead1ab4	0.33809435
64	0x3de53656	0.111920044
65	0x3d95445f	0.072884314
66	0xbe310e5c	-0.17290634
67	0x3dd72988	0.10505968
68	0x3e163bac	0.146712
69	0x3e9ccdca	0.30625755
70	0x3e3d6089	0.18493856
71	0xbe2e4b0e	-0.17020819
72	0xbea02ce1	-0.3128424
73	0xbe426883	-0.1898518
74	0x3e0b929c	0.13630146
75	0x3e34fddc	0.17674965
76	0xbe8cf390	-0.27529573
77	0xbe5d436c	-0.2160775
78	0x3da9afeb	0.08285507
79	0xbf04ef0e	-0.5192727
80	0x3dc7461e	0.09730171
81	0x3d30f51c	0.043202505
82	0x3d3813dc	0.044940814
83	0xbdd1051b	-0.10206052
84	0x3bc17a95	0.0059045055
85	0xbc2ec042	-0.010665955
86	0x3bece0e3	0.007228957
87	0xbd29a1ab	-0.041413944
88	0xbcfffba0	-0.031247914
89	0x3d9a0574	0.07520571
90	0x3df13547	0.1177774
91	0x3c830402	0.015993122
92	0x3e5542b2	0.20826223
93	0xbdbd5ed9	-0.092466064
94	0x3e941c47	0.28927824
95	0x3e886f56	0.26647443
96	0x3e20125b	0.15632002
97	0x3e2f0600	0.17092133
98	0x3e63b150	0.22235608
99	0x3e69ffee	0.22851536
100	0x3ea8a785	0.32940307
101	0xbd9c02c5	-0.07617716
102	0x3e5d7f2e	0.21630546
103	0x3d4a2a94	0.049357012
104	0xbda1fbaf	-0.07909333
105	0xbed45419	-0.4147041
106	0xbec4acfe	-0.38413233
107	0xbda8fd10	-0.08251393
108	0x3ea3c934	0.31989443
109	0x3e86ac90	0.2630353
110	0x3dc25185	0.09488205
111	0x3e5646ae	0.209254
112	0xbdb92938	-0.09041065
113	0x3ed6974d	0.41912308
114	0x3e76eda7	0.24114095
115	0xbe74172f	-0.23836969
116	0x3e85cbd4	0.2613207
117	0xbdb95939	-0.09050221
118	0xbee97206	-0.45594805
119	0xbe21cf02	-0.15801623
120	0xbd1323c9	-0.0359228
121	0x3e0fc5ee	0.14040348
122	0xbdc6d5fe	-0.097087845
123	0xbeb590df	-0.3546209
124	0x3ddf9ba7	0.1091836
125	0x3da4cb4b	0.080465876
126	0xbc329d2e	-0.010901732
127	0x3db688fb	0.08912846
128	0xbd9f9c92	-0.07793535
129	0x3ddc4352	0.10755028
130	0xbda306a0	-0.07960248
131	0xbc75d76b	-0.015004973
132	0xbddfd12e	-0.1092857
133	0x3d232a49	0.03983525
134	0x3d61840c	0.05505757
135	0xbec0a725	-0.3762752
136	0xbeac9399	-0.33706358
137	0x3cb2cec3	0.021827107
138	0x3d03cbfb	0.032176953
139	0x3dc68130	0.09692609
140	0x3cdf1d64	0.027235694
141	0xbd1ca6e0	-0.038245082
142	0x3bcff0b3	0.0063458323
143	0xbe4d7a1d	-0.20066114
144	0x3da5272a	0.080641106
145	0xbe0cd37f	-0.13752554
146	0xbe64335a	-0.22285214
147	0xbdf75f86	-0.120787665
148	0x3e2d7056	0.16937384
149	0xbdb2db25	-0.08733205
150	0x3d69563a	0.056966998
151	0xbd57bd1a	-0.052670576
152	0xbe95d9c4	-0.29267704
153	0xbebb3c4f	-0.3656945
154	0xbe2df3eb	-0.16987579
155	0xbe679945	-0.22617061
156	0xbe077353	-0.13227586
157	0xbe9f2ad0	-0.3108735
158	0x3da64cc7	0.08120113
159	0x3ec13711	0.37737325
160	0xbe8438fe	-0.25824732
161	0x3ed4fe6c	0.41600358
162	0x3e225c7e	0.15855595
163	0x3d9fafae	0.0779718
164	0xbeb65f94	-0.35619795
165	0x3ee39238	0.44447494
166	0x3e7a75fd	0.24459071
167	0x3ed36a76	0.4129216
168	0xbe16449e	-0.14674613
169	0xbf02e61a	-0.5113236
170	0x3cd98070	0.026550502
171	0xbd821940	-0.06352472
172	0x3d8b92ea	0.06815131
173	0xbd0680b6	-0.032837592
174	0x3d8dafca	0.06918295
175	0xbd1ab71f	-0.037772294
176	0x3d9e4f28	0.077299416
177	0x3cb48542	0.022036199
178	0xbd19569e	-0.03743612
179	0xbd706745	-0.058692235
180	0xbe4365c0	-0.19081783
181	0xbeba3e1e	-0.36375517
182	0xbf11dc61	-0.56976897
183	0xbe6f193b	-0.23349468
184	0xbe8e37d8	-0.2777698
185	0xbe3b80e7	-0.18310891
186	0xbe06163d	-0.1309442
187	0xbc40248d	-0.011727464
188	0xbe833c3d	-0.25631896
189	0xbebf6885	-0.3738443
190	0xbe480379	-0.19532575
191	0xbf1b1832	-0.60583794
192	0xbe045c9c	-0.12925953
193	0xbf239c96	-0.63910806
194	0x3e3a3167	0.18182908
195	0x3dc36e7f	0.0954256
196	0xbcf3fb16	-0.029782813
197	0xbdaa5105	-0.083162345
198	0x3e7b0bd8	0.24516237
199	0x3d0f758b	0.035024207
200	0x3cad5909	0.02116062
201	0x3e26654b	0.16249578
202	0xbebf9a65	-0.3742248
203	0xbd2d4be8	-0.042308718
204	0x3e8d2d1b	0.27573475
205	0xbe3256d3	-0.17415933
206	0x3d9bad42	0.07601406
207	0x3eb90549	0.36136845
208	0x3ec75caf	0.389379
209	0xbe79561b	-0.24349253
210	0x3de308b2	0.11085643
211	0x3f192aca	0.59830916
212	0x3e767054	0.24066287
213	0xbc7ec7ac	-0.015550535
214	0x3e8a9380	0.2706566
215	0x3e040395	0.12891991
216	0x3df8f232	0.1215557
217	0xbd91d1c7	-0.0712009
218	0xbd370b3d	-0.044688452
219	0x3daf7e51	0.08569015
220	0xbb6b1ae3	-0.003587418
221	0x3bf22ae2	0.007390366
222	0xbe2a520f	-0.16632865
223	0x3db556c0	0.08854437
224	0xbc361431	-0.011113212
225	0x3d8562db	0.06512996
226	0x3e951bc8	0.29122758
227	0x3e6f1be5	0.23350485
228	0x3e9a9387	0.3019068
229	0x3f01ef35	0.50755626
230	0x3e2e5c44	0.17027384
231	0xbe4ecf41	-0.20196249
232	0x3e2307b0	0.15920901
233	0xbd8c6ffd	-0.068572976
234	0x3e2628b9	0.16226472
235	0xbe5ea23a	-0.21741572
236	0xbd737c33	-0.059444617
237	0x3e90b2b7	0.2826135
238	0xbe7b42cc	-0.245372
239	0x3ed47ad5	0.41499963
240	0xbd023b70	-0.031794965
241	0xbd996bc2	-0.07491256
242	0x3d728ef5	0.059218366
243	0xbe9ee50d	-0.31034127
244	0x3e1fb873	0.15597706
245	0x3e465ad2	0.19370583
246	0xbed6e9ea	-0.41975337
247	0xbf29b40b	-0.6629035
248	0xbec7f864	-0.39056695
249	0x3dc8eaac	0.09810385
250	0x3d7a17e5	0.061057944
251	0x3d20b1d2	0.039232083
252	0xbee99ab3	-0.4562584
253	0x3d8dce66	0.06924133
254	0xbe870a86	-0.26375216
255	0x3e3bdd42	0.18346122

a1.bias f4 [16]
0	0xbd92fda8	-0.07177287
1	0xbdea3d11	-0.11437429
2	0xbe19eb46	-0.15031156
3	0xbd5e57ef	-0.05428308
4	0xbdc043a6	-0.09387903
5	0xbe3182f5	-0.17335112
6	0x3e8a782f	0.27044818
7	0xbdbee032	-0.093201056
8	0x3d94cdd2	0.072658196
9	0xbe6e14e6	-0.2325016
10	0x3def441e	0.11682914
11	0x3df7d12e	0.12100445
12	0xbdcf1ed1	-0.101133
13	0xbd6ace2d	-0.05732553
14	0xbdeaa58d	-0.114573576
15	0xbdada99c	-0.08479616

a2.weight f4 [16, 16, 3, 3]
0	0x3d83842c	0.06421694
1	0xbd4b783e	-0.04967522
2	0xbd4f4806	-0.050605796
3	0xbd9b8b64	-0.07594946
4	0x3b2a6f52	0.0026006293
5	0xbbc3d3c2	-0.005976171
6	0xbcbff251	-0.023430975
7	0x3c54fa71	0.012999163
8	0xbd3f7407	-0.04674151
9	0xbb988b25	-0.004655259
10	0xbc422f5c	-0.011852112
11	0xbd6f30e5	-0.05839624
12	0xbdae2c82	-0.08504583
13	0xbd8c4df4	-0.06850806
14	0x3b87acc9	0.0041404706
15	0xbd4fbe17	-0.050718393
16	0xbcc24d4a	-0.023718495
17	0xbc879e84	-0.016555078
18	0xbbb42062	-0.0054970244
19	0x3c304fa8	0.010761179
20	0xbcfac139	-0.030609714
21	0xbd28df89	-0.041228805
22	0x3ceefce1	0.029173316
23	0xbdfcb8b1	-0.123399146
24	0xbd039829	-0.032127533
25	0xbd93f5e8	-0.07224637
26	0x3b9749cc	0.0046169516
27	0xbda4a409	-0.080391
28	0xbdcce31e	-0.10004257
29	0x3d3af617	0.045644846
30	0xbd297855	-0.041374523
31	0xbd25a1ed	-0.040437628
32	0x3cee083a	0.029056657
33	0xbddeab9c	-0.10872576
34	0xbd7992c7	-0.060930993
35	0x3c5c336d	0.013439995
36	0x3c07e679	0.008294695
37	0xbded55d7	-0.11588638
38	0xbcd71617	-0.02625565
39	0xbd750db3	-0.059827518
40	0xbda9cafa	-0.08290668
41	0xbddf7e11	-0.10912717
42	0xbd9ab74c	-0.07554492
43	0xbdd6727d	-0.10471056
44	0x3b3f56e4	0.0029196078
45	0xbd52b4ed	-0.051442076
46	0x3cad10b9	0.021126138
47	0x3d088800	0.033332825
48	0xbd171ef0	-0.03689474
49	0xbbdc6ba2	-0.006726698
50	0xbd630d3c	-0.055432543
51	0xbc9731b8	-0.018456325
52	0x3ca98f75	0.020698288
53	0xbdceb1e5	-0.100925244
54	0xbdd9f753	-0.106428765
55	0xbd849c83	-0.06475165
56	0xbdd333ba	-0.103126004
57	0x3c8e0166	0.017334651
58	0xbd5678ab	-0.05236117
59	0xbd83c999	-0.06434936
60	0x3ccdd991	0.025128158
61	0xbce0cc6f	-0.027441232
62	0x3c0ee237	0.008720926
63	0x3da8f18b	0.08249196
64	0xbd32fae1	-0.043696288
65	0xbd4f7e1d	-0.05065738
66	0xbc77d4b7	-0.015126399
67	0x3cb702d3	0.022340214
68	0xbda64ea7	-0.081204705
69	0xbe1d35fd	-0.15352626
70	0xbdb9d423	-0.09073665
71	0xbc006c37	-0.0078383
72	0xbd431930	-0.047631443
73	0xbd641628	-0.055685192
74	0xbdc0a1b7	-0.09405845
75	0xbd2cdd05	-0.04220297
76	0xbdb7cc3c	-0.089745015
77	0xbda9677b	-0.082716905
78	0xbdfe32d8	-0.124120414
79	0xbda4d080	-0.08047581
80	0xbdd11153	-0.102083825
81	0x3d06a16f	0.0328688
82	0x3d6d6713	0.057959627
83	0xbd4e71b8	-0.05040142
84	0x3bfc1dad	0.0076939673
85	0xbde8a293	-0.113591336
86	0xbdb5f98f	-0.0888549
87	0x3c8dfb19	0.017331647
88	0x3d3ecf33	0.04658432
89	0xbd6e793f	-0.058221098
90	0x3ce2d306	0.027688514
91	0x3ca200a5	0.019775698
92	0x3c823feb	0.01589962
93	0xbcedfe3f	-0.029051898
94	0xbd93bf27	-0.07214194
95	0x3c6f077a	0.014589185
96	0xbdeaec1f	-0.11470818
97	0xbde1d11c	-0.110262126
98	0x3b8ff6e7	0.0043934467
99	0xbc5a50bd	-0.013324914
100	0xbd51d7a4	-0.05123104
101	0x3c56e773	0.013116705
102	0xbc128137	-0.00894194
103	0xbda3812e	-0.079836234
104	0x3c86a76a	0.016437251
105	0xbd74ad55	-0.059735615
106	0xbd457038	-0.048202723
107	0xbd179e19	-0.037016008
108	0xbcfa3f8a	-0.030547876
109	0xbda81080	-0.08206272
110	0xbd975635	-0.073894896
111	0xbb7e7a56	-0.0038830242
112	0xbd546051	-0.051849667
113	0xbd0aef67	-0.033919718
114	0xbd6f0a05	-0.058359165
115	0x3c51eea2	0.012813242
116	0xbd629a96	-0.055323206
117	0xbd84e48b	-0.064889036
118	0x3cc5c064	0.02413959
119	0xbd9c6b60	-0.07637668
120	0xbc05a493	-0.008156913
121	0xbd05398e	-0.03252559
122	0xbe02aef5	-0.12762053
123	0xbd27d73c	-0.040976748
124	0xbdaf9dfc	-0.08575055
125	0xbd4ae5b1	-0.049535457
126	0x3d0ed208	0.03486827
127	0xbcaf2a9d	-0.021382624
128	0x3d979fd9	0.074035354
129	0x3d46c07a	0.048523404
130	0xbdacf618	-0.08445376
131	0x3d0157d8	0.031577915
132	0x3b1688f4	0.0022969814
133	0x3d92e88a	0.071732596
134	0xbd850455	-0.06494967
135	0xbd8d3795	-0.06895367
136	0xbd3d09eb	-0.046152037
137	0xbd8eb3cb	-0.069678865
138	0x3b5966d6	0.0033172867
139	0xbd47b1dd	-0.048753608
140	0xbd4d6d24	-0.050152913
141	0xbdfd6f0f	-0.12374698
142	0xbdc17f07	-0.09448057
143	0xbd7ac45f	-0.06122243
144	0x3ec64441	0.3872395
145	0xbd9e1afe	-0.07719992
146	0xbeef2ff8	-0.46716285
147	0x3dad523e	0.08462952
148	0xbee1348c	-0.43985403
149	0x3e804308	0.2505114
150	0x3d1084f3	0.03528304
151	0x3f042824	0.5162375
152	0xbecf8246	-0.40529078
153	0xbd344497	-0.044010725
154	0xbe6cb1b9	-0.23114671
155	0xbe7e7326	-0.24848613
156	0x3e164d1e	0.14677855
157	0xbb4562b6	-0.003011865
158	0xbe92ef4e	-0.286982
159	0x3d931b2e	0.071829185
160	0x3dab6dd7	0.0837056
161	0xbd05b1b8	-0.03264019
162	0x3e8ed83f	0.27899358
163	0xbe867624	-0.2626201
164	0xbdb151c4	-0.08658174
165	0x3c847615	0.016169587
166	0xbe9e2408	-0.30886865
167	0x3e576b16	0.21036944
168	0x3d78eca3	0.06077255
169	0x3eac990a	0.3371051
170	0x3c42692e	0.011865897
171	0xbecb9780	-0.39764023
172	0x3e976407	0.29568502
173	0xbe2e65c8	-0.17031014
174	0xbe0219d4	-0.12705165
175	0xbd12171b	-0.035666566
176	0x3d5a8ffd	0.053359974
177	0xbe865b17	-0.2624137
178	0x3e0ba154	0.1363576
179	0x3e0da56f	0.13832639
180	0xbd9e8b1a	-0.07741375
181	0x3d083f3f	0.03326344
182	0x3e9acfeb	0.30236754
183	0xbeb611bf	-0.35560414
184	0xbd957735	-0.072981276
185	0x3eb5bfc5	0.3549787
186	0x3db8b1c3	0.0901828
187	0x3e4535f5	0.19258864
188	0xbf10eed1	-0.56614405
189	0xbcd6690c	-0.026173137
190	0xbceb48a9	-0.02872117
191	0x3e40c085	0.1882344
192	0xbe35932e	-0.17731926
193	0xbdb71280	-0.089390755
194	0xbc957848	-0.018245831
195	0xbe201227	-0.15631925
196	0x3e22d092	0.15899876
197	0xbe5c5eaa	-0.21520486
198	0xbe980637	-0.29692242
199	0xbe1cdf6a	-0.153196
200	0xbe01b278	-0.12665737
201	0x3c007d42	0.007842364
202	0xbe138409	-0.14405836
203	0x3e121aa7	0.1426798
204	0x3e1dd5fd	0.15413661
205	0x3e04ef73	0.12981968
206	0x3e6ca084	0.23108107
207	0xbcc14e72	-0.023596976
208	0xbe2af2b8	-0.16694152
209	0x3e2de4b5	0.16981776
210	0x3ee96d78	0.4559133
211	0x3e51d65a	0.20491925
212	0x3ef14094	0.47119582
213	0x3e6a94ed	0.22908373
214	0x3db38a7b	0.087666474
215	0x3c56dc6f	0.013114079
216	0xbe1c1418	-0.1524204
217	0xbe89e9f2	-0.269363
218	0x3e839753	0.2570139
219	0x3da01ddb	0.078181945
220	0x3ea359a9	0.31904343
221	0x3dcf7ff5	0.10131828
222	0xbe016dbc	-0.12639517
223	0x3e7a662f	0.24453042
224	0xbee840ef	-0.4536204
225	0x3e0c1468	0.1367966
226	0xbde522b2	-0.11188258
227	0x3e12aed8	0.1432451
228	0x3e52743e	0.20552155
229	0x3e188c39	0.1489724
230	0xbcf90e5b	-0.030402353
231	0xbd977ba2	-0.07396628
232	0xbd931781	-0.071822174
233	0x3d98cbbc	0.07460734
234	0xbd79acbf	-0.06095576
235	0x3da66069	0.081238575
236	0x3dfe177b	0.12406822
237	0xbdc4e989	-0.09614856
238	0x3e327355	0.17426808
239	0x3d768c8c	0.06019263
240	0xbf020ac3	-0.5079767
241	0xbecfa8dc	-0.40558517
242	0x3e6b100f	0.22955345
243	0xbd4d5428	-0.050129086
244	0x3e1119ec	0.14170045
245	0x3dbed9f6	0.093189165
246	0xbd89bb36	-0.06725161
247	0xbecb351d	-0.3968896
248	0xbed481eb	-0.4150537
249	0xbf12b886	-0.5731281
250	0xbed31b47	-0.41231748
251	0xbeb58038	-0.35449386
252	0x3d1a762d	0.037710357
253	0xbd690e69	-0.05689851
254	0x3d381374	0.044940427
255	0x3e3a88c6	0.18216237

a2.bias f4 [16]
0	0xbd698423	-0.05701078
1	0xbd0983a1	-0.033572797
2	0xbc99d40a	-0.018777866
3	0xbae9d03c	-0.0017838548
4	0xb981a49a	-0.00024727435
5	0x3c5f2b43	0.013621154
6	0x3d60162b	0.05470864
7	0x3e4a1c37	0.19737326
8	0x3e45a212	0.19300106
9	0xbdd63a44	-0.10460332
10	0xbe1d9e0b	-0.1539232
11	0x3d237159	0.03990302
12	0xbe534b6c	-0.2063424
13	0x3e8c2e7c	0.27379215
14	0x3cbe16bc	0.0232042
15	0xbe9a5d35	-0.30149236

a3.weight f4 [32, 16, 3, 3]
0	0xbd2ccc4c	-0.04218702
1	0xbbc92e78	-0.0061395727
2	0x3cd05e1c	0.0254355
3	0xbbc9bb61	-0.0061563705
4	0x3d8a2272	0.06744851
5	0x3d86e218	0.06586093
6	0x3c8bbf08	0.017058864
7	0xbd13a510	-0.036046088
8	0x3b1fe05b	0.00243952
9	0xbe62692b	-0.22110431
10	0xbe187986	-0.14890108
11	0xbdd5a14f	-0.10431158
12	0x3dfd00ef	0.12353694
13	0xbd90aa6f	-0.07063758
14	0xb9d94b1b	-0.00041445423
15	0x3d1adaa1	0.037806157
16	0x3d717b9c	0.058955774
17	0xbdb9d91a	-0.09074612
18	0xbe40dd0b	-0.18834321
19	0xbec63fc2	-0.38720518
20	0x3e018552	0.12648514
21	0xbdd9ad67	-0.10628777
22	0xbd9f97ca	-0.07792623
23	0x3cd32697	0.025775237
24	0xbe99454d	-0.29935685
25	0xbe63487c	-0.2219562
26	0x3dc7ff19	0.09765453
27	0xbd277485	-0.040882606
28	0x3cf80d16	0.030279677
29	0xbe1e2d7d	-0.1544704
30	0xbeabee00	-0.33580017
31	0x3bcbb8c9	0.0062170965
32	0x3e05a979	0.1305293
33	0x3ec414ed	0.38297215
34	0x3db1f7d5	0.08689848
35	0x3e1f420a	0.15552536
36	0xbecc4df5	-0.39903226
37	0xbe3fbfab	-0.1872546
38	0xbdaedd22	-0.085382715
39	0xbdbca78a	-0.09211643
40	0xbebb0659	-0.3652828
41	0xbe2d0da7	-0.16899739
42	0xbeb3d45a	-0.3512295
43	0xbd8d7a06	-0.0690804
44	0x3c897d9d	0.01678353
45	0xbde71034	-0.112823874
46	0xbe7285a4	-0.23683792
47	0x3e6ddc07	0.23228465
48	0x3df2199e	0.11821292
49	0x3e6a12d8	0.22858751
50	0x3df50297	0.119633846
51	0x3eae4d5d	0.34043398
52	0x3ef92622	0.48661906
53	0xbeb78abf	-0.35848042
54	0x3df18727	0.117933564
55	0x3e0e020c	0.13867968
56	0xbe1bd25a	-0.15216962
57	0x3de41f89	0.11138827
58	0xbeaf769a	-0.34270173
59	0xbda313d6	-0.07962768
60	0x3dc7599e	0.0973389
61	0x3e4b6d8b	0.19866006
62	0x3f0300b4	0.5117295
63	0x3e39f64d	0.18160363
64	0x3db6798c	0.08909902
65	0x3e2e43f1	0.17018105
66	0x3e86c4bd	0.26321974
67	0xbe43e4b7	-0.19130217
68	0x3de887dc	0.11354038
69	0x3e8360a5	0.2565967
70	0xbea84dfb	-0.32871994
71	0xbd062a80	-0.032755375
72	0xbd089560	-0.03334558
73	0x3ed57a34	0.41694796
74	0x3ea0bc12	0.31393486
75	0xbec3c1a1	-0.38233665
76	0xbc2d68a0	-0.010584027
77	0xbe531704	-0.20614249
78	0xbf1546a2	-0.583109
79	0x3e4b2c65	0.19841154
80	0x3dfe44ea	0.12415488
81	0x3d3ed0e1	0.04658592
82	0x3e474848	0.19461167
83	0xbe81f943	-0.25385484
84	0xbc82be00	-0.01595974
85	0xbdaafe42	-0.08349277
86	0xbe557964	-0.20847088
87	0xbe95096b	-0.29108748
88	0x3d576d63	0.052594554
89	0xbe46b71a	-0.19405785
90	0xbd2c9c80	-0.042141438
91	0xbc6d7cc2	-0.014495077
92	0xbee3d00f	-0.44494674
93	0x3eccd50d	0.40006295
94	0x3e8093fc	0.25112903
95	0x3d283eea	0.041075625
96	0x3d142e56	0.036177002
97	0x3e44d8b8	0.19223297
98	0x3d9b72a5	0.07590226
99	0xbe8d8eea	-0.27648097
100	0xbf144dc9	-0.5793119
101	0xbe6d9702	-0.23202136
102	0xbe2a886d	-0.16653605
103	0xbddd384d	-0.10801754
104	0xbd79c9b0	-0.06098336
105	0x3e1fbbc6	0.15598974
106	0x3d42e2dd	0.047579635
107	0xba717e33	-0.00092122256
108	0xbe8b8a33	-0.27253875
109	0xbe79df23	-0.24401526
110	0xbd5aba6a	-0.053400435
111	0xbe959b20	-0.29219913
112	0xbd86350d	-0.065530874
113	0x3eefb067	0.46814272
114	0xbe05769a	-0.13033524
115	0xbde60e8e	-0.11233245
116	0xbda64c99	-0.081200786
117	0x3e8090ae	0.25110382
118	0x3da9d91a	0.08293362
119	0x3d538bee	0.05164712
120	0x3e14b182	0.14520839
121	0x3ce73786	0.028224718
122	0x3edf7dba	0.4365061
123	0xbe74fcb9	-0.23924531
124	0xbddf8acc	-0.10915145
125	0xbe16eacf	-0.1473801
126	0x3c00ae59	0.007854068
127	0x3e26724e	0.16254541
128	0x3bff817e	0.007797419
129	0xbe656efe	-0.22405621
130	0x3e099686	0.13436326
131	0x3de40cad	0.1113523
132	0x3c8921cf	0.016739754
133	0xbc9f91c6	-0.01947869
134	0xbec1abf6	-0.37826508
135	0xbeddc1ad	-0.43311825
136	0xbccf7728	-0.025325373
137	0x3e7a2acf	0.24430393
138	0xbece1f1a	-0.40258104
139	0x3e0ac3c8	0.13551247
140	0xbf06c99b	-0.52651376
141	0x3eb2e019	0.34936598
142	0x3cf99acd	0.030469323
143	0xbe36adb9	-0.17839707
144	0xbd971211	-0.07376493
145	0x3d619212	0.055070944
146	0x3d2e6682	0.042578228
147	0x3c5cb528	0.013470925
148	0xbd9dda43	-0.07707646
149	0xbcc1e586	-0.023669016
150	0xbcf54076	-0.029937964
151	0x3d901111	0.07034505
152	0x39488a00	0.00019124895
153	0xbda629ac	-0.08113417
154	0xbd942c2f	-0.0723499
155	0xbce81c2e	-0.02833375
156	0x3d132c8c	0.035931155
157	0xbda75b6a	-0.08171733
158	0xbd1165a0	-0.035497308
159	0xbdb5d0de	-0.08877729
160	0x3acea9c3	0.0015767146
161	0x3b043602	0.0020173793
162	0xbd7c6719	-0.06162176
163	0x3c9db408	0.019250885
164	0xbdb456fc	-0.088056535
165	0x3c7d0efa	0.015445465
166	0xbdda62d4	-0.10663381
167	0x3c777488	0.015103467
168	0xbd4c42f9	-0.049868558
169	0xbc99fc5a	-0.018797088
170	0xbdfb42eb	-0.12268623
171	0xbb826048	-0.003978763
172	0xbbfb0ac9	-0.007661198
173	0xbbb445fc	-0.005501507
174	0xbc63f1bd	-0.013912615
175	0x3bb191f9	0.0054190126
176	0xbd508f19	-0.05091772
177	0x3bafca53	0.005364695
178	0xbda7019f	-0.08154606
179	0xbcb32ce9	-0.021872
180	0xbcff2db2	-0.031149719
181	0x3d106758	0.035254806
182	0xbdd1908f	-0.102326505
183	0x3a560a27	0.0008164965
184	0xbd82b99e	-0.0638306
185	0xbe1097b6	-0.14120373
186	0x3cb12321	0.021623196
187	0x3c8150b5	0.015785554
188	0xbdd61945	-0.104540385
189	0xbd9001d0	-0.07031596
190	0xbd70e286	-0.05880978
191	0x3c811141	0.015755298
192	0xbd1168aa	-0.035500206
193	0x3b522b75	0.003206936
194	0xbd81027f	-0.06299304
195	0xbdb2e9c4	-0.087359935
196	0xbd6e4e4b	-0.058180135
197	0x3cd63514	0.026148356
198	0x3cd0e3b2	0.025499199
199	0xbda43224	-0.08017376
200	0xbd825382	-0.06363584
201	0xbdaf36bc	-0.08555362
202	0x3cf9a007	0.030471815
203	0xbd598bcd	-0.05311184
204	0xbd208f14	-0.03919895
205	0xbd7fdf58	-0.062468857
206	0x3c7b9f59	0.015357816
207	0xbd50443e	-0.05084633
208	0x3cc5cfba	0.024146903
209	0x3d0e3052	0.03471405
210	0xbd4470ea	-0.047959246
211	0x3d211a7a	0.03933189
212	0xbd55085c	-0.052009925
213	0xbda487c7	-0.0803371
214	0xbcc28ff9	-0.023750292
215	0x3d568626	0.052374028
216	0xbe0067ed	-0.12539645
217	0xbc62dee0	-0.013847083
218	0xbcd2c78a	-0.025729913
219	0xbd3aac8d	-0.045574713
220	0xbd44fe33	-0.048093986
221	0xbd03d975	-0.032189805
222	0xbcd342fd	-0.025788778
223	0x3b5bda4f	0.003354687
224	0xbcbf959c	-0.023386769
225	0xbd384acb	-0.044993203
226	0xbdb93628	-0.090435326
227	0xbda007e4	-0.07814005
228	0xbd930468	-0.07178575
229	0xbd009600	-0.03139305
230	0x3c216188	0.009849913
231	0xbd452fe0	-0.04814136
232	0x3d2f1d7a	0.04275272
233	0xbcdcb0ce	-0.026939776
234	0xbda6d76c	-0.08146557
235	0x3d398c1e	0.04529964
236	0x3cf69bcb	0.030103585
237	0xbd6f78e1	-0.05846489
238	0x3d442fc9	0.047897134
239	0x3cf19794	0.029491223
240	0xbdb02878	-0.08601469
241	0xbc1da0d0	-0.00962086
242	0x3bcd1bc7	0.006259415
243	0xbdd8f58b	-0.105937086
244	0x3c3783b6	0.011200836
245	0xbb7cd168	-0.0038576964
246	0xbdb679d2	-0.08909954
247	0x3c8faadb	0.017537525
248	0xbdb230bb	-0.08700701
249	0xbcca89ad	-0.024723852
250	0xbd4f44bf	-0.05060267
251	0xbda9e282	-0.08295156
252	0xbd811409	-0.063026495
253	0xbd423b84	-0.04742004
254	0xbcc2e692	-0.023791585
255	0x3cd4d0e6	0.025978517

a3.bias f4 [32]
0	0x3e83bea1	0.25731376
1	0xbe208ab0	-0.15677905
2	0xbc9ff90c	-0.019527934
3	0x3e5c4cb4	0.21513635
4	0x3ea50471	0.3222995
5	0xbb876990	-0.004132457
6	0xbe99c4ea	-0.30033046
7	0x3eaaef08	0.3338549
8	0x3e597d59	0.21239223
9	0x3ca9a227	0.020707203
10	0xbe6228ee	-0.22085926
11	0xbdef0a24	-0.11671856
12	0x3de3278b	0.110915266
13	0xbccf2631	-0.025286766
14	0xbe99dc61	-0.30050948
15	0xbe485677	-0.19564234
16	0x3e93ea06	0.28889483
17	0xbe1b3260	-0.15155935
18	0xbe0293a4	-0.12751633
19	0xbe80772d	-0.25090924
20	0x3ded5bc2	0.11589767
21	0xbe68b993	-0.22727041
22	0xbd6ff7f7	-0.058586087
23	0xbe2a3388	-0.1662122
24	0xbcd91c7b	-0.026502838
25	0xbd8ac33d	-0.0677552
26	0xbe495d5f	-0.19664524
27	0xbddb2e37	-0.10702174
28	0xbe1cd02e	-0.15313789
29	0xbaabf894	-0.0013120347
30	0xbd214e58	-0.039381355
31	0xbe4401ce	-0.19141313

b1.weight f4 [32, 32, 3, 3]
0	0x3d9d2bfb	0.07674404
1	0xbe3b2204	-0.18274695
2	0xbdf1191b	-0.117723666
3	0xbde225e0	-0.1104238
4	0xbe5ea936	-0.21744236
5	0xbe1d8209	-0.15381636
6	0xbc80cf2d	-0.01572379
7	0x3e4469ce	0.19180986
8	0xbed615ed	-0.41813603
9	0xbce18a02	-0.027531628
10	0x3bc6ded1	0.0060690423
11	0x3cd75a04	0.02628804
12	0xbcfaa304	-0.03059531
13	0x3d1e4cfd	0.03864764
14	0xbc55537d	-0.013020393
15	0xbcae1dee	-0.021254506
16	0x3c5eb41d	0.013592747
17	0x3cdb7328	0.02678831
18	0xbd696344	-0.056979433
19	0xbdd19a65	-0.102345265
20	0x3c0ccec3	0.008594218
21	0x3d8f46e5	0.06995944
22	0xbe1e8fe0	-0.15484571
23	0x3c1eee02	0.0097003
24	0x3e3e7f37	0.18603216
25	0xbe51c53b	-0.20485394
26	0xbeaa7772	-0.33294255
27	0xbc8f2a0a	-0.0174761
28	0xbdf0693f	-0.11738824
29	0x3eea8e21	0.4581156
30	0xbe03dc87	-0.12877093
31	0x3e431119	0.19049491
32	0x3f018706	0.50596654
33	0x3f4d3ecf	0.80173963
34	0x3e682302	0.22669604
35	0xbf4e0670	-0.8047857
36	0x3dc9c721	0.09852434
37	0x3e54784b	0.20749013
38	0x3dc47201	0.09592057
39	0xbe214524	-0.15749031
40	0xbec491c9	-0.38392475
41	0x3e4d6bb1	0.20060612
42	0xbe2f1c14	-0.17100555
43	0x3edc59d5	0.43037286
44	0xbed70a47	-0.42000028
45	0x3e722205	0.2364579
46	0xbe8f847e	-0.2803077
47	0xbe8ec314	-0.27883208
48	0xbdd8796f	-0.105700366
49	0x3d6f2841	0.058388
50	0xbedb8308	-0.42873406
51	0x3c8a2b6a	0.016866405
52	0x3e69bab4	0.22825128
53	0x3ea86e99	0.3289688
54	0xbd9c89a2	-0.07643439
55	0xbd480bcc	-0.048839375
56	0xbdafb7c3	-0.08579972
57	0x3a06b5b0	0.0005138768
58	0x3dbe97af	0.09306275
59	0xbe42135b	-0.18952696
60	0xbd731907	-0.05935004
61	0x3e0ba243	0.13636117
62	0x3d7c41e4	0.061586276
63	0xbd835a34	-0.06413689
64	0x3e925332	0.28579098
65	0xbdc0b942	-0.09410335
66	0xbddc75a9	-0.107646294
67	0xbbd904ae	-0.0066228723
68	0xbd51a968	-0.05118695
69	0x3dea3ae0	0.11437011
70	0xbdb08a14	-0.08620086
71	0x3e808917	0.2510459
72	0xbe547140	-0.20746326
73	0x3de9a8ce	0.1140915
74	0xbda90afc	-0.08254048
75	0xbe0890dc	-0.1333651
76	0xbda5b988	-0.08092028
77	0xbc05a196	-0.008156201
78	0x3e112d0f	0.14177345
79	0x3ea0c5b0	0.31400824
80	0xbce10c4e	-0.027471688
81	0x3c9cb1ba	0.019127715
82	0x3d0af724	0.033927098
83	0xbd1660ed	-0.03671353
84	0x3c228945	0.009920423
85	0xbd952c7c	-0.07283875
86	0x3d8caa88	0.06868464
87	0xbc22c922	-0.009935649
88	0xbd66ae7d	-0.05631875
89	0x3cb77651	0.022395285
90	0xbe2f33a8	-0.17109549
91	0x3e9055e0	0.28190517
92	0xbe8c0c03	-0.27352914
93	0x3ef7ecd9	0.48422888
94	0x3ec5301a	0.3851326
95	0x3ec212ae	0.37904876
96	0x3e40c41f	0.18824814
97	0xbded70ef	-0.11593806
98	0x3e10ef64	0.1415382
99	0x3c8fa3b6	0.017534118
100	0x3d0b2c7d	0.033977974
101	0xbd5b7852	-0.053581543
102	0xbd68bf92	-0.05682332
103	0x3d16f606	0.03685572
104	0xbb1ddab0	-0.0024086647
105	0xbd68eb6b	-0.056865137
106	0xbd6b3c2b	-0.057430428
107	0xbc8dcf72	-0.017310832
108	0x3ebd5a3e	0.36982912
109	0x3d89340d	0.06699381
110	0x3e8331cf	0.25623938
111	0x3bd7c45d	0.0065846876
112	0x3b6353f2	0.0034687486
113	0xbdd6dea7	-0.10491686
114	0x3ee174cf	0.4403443
115	0x3e79f1cf	0.24408649
116	0xbe82f324	-0.25576127
117	0xbea5da6e	-0.3239321
118	0x3dbbdf28	0.09173423
119	0xbf480fdd	-0.78149205
120	0x3db97435	0.09055368
121	0x3e174b18	0.1477474
122	0xbd64b91f	-0.055840608
123	0x3dca9e40	0.09893465
124	0x3d8217b2	0.06352176
125	0xbf0a91de	-0.54128826
126	0xbdd61efd	-0.10455129
127	0x3deb228f	0.11481201
128	0xbd60b8e3	-0.05486382
129	0x3d952c4e	0.07283841
130	0xbd50b1cd	-0.050950814
131	0x3e15603a	0.14587489
132	0x3ec9bc33	0.39401397
133	0x3d2669ac	0.04062812
134	0xbc6604d8	-0.014039241
135	0x3e5b32de	0.21406123
136	0x3df84059	0.12121648
137	0x3e8e3ef9	0.2778242
138	0xbd4df9c9	-0.05028704
139	0x3bf7856f	0.0075537483
140	0xbe977f2b	-0.2958921
141	0x3f260cfc	0.6486356
142	0x3d4e9bd6	0.050441585
143	0xbe251b46	-0.16123685
144	0xbe8be485	-0.27322784
145	0x3c0934ac	0.008374374
146	0xbdce8285	-0.100834884
147	0x3e0d56a0	0.13802576
148	0xbcc3b6ca	-0.023890872
149	0x3ec23d11	0.37937215
150	0x3edf7f18	0.43651652
151	0xbeefd3d5	-0.46841303
152	0x3e6f362f	0.23360513
153	0x3ddd8669	0.10816652
154	0x3dac7d23	0.084223054
155	0xbe792d54	-0.24333698
156	0x3e93e97c	0.28889072
157	0x3d84ff27	0.06493979
158	0xbe4deff5	-0.20111068
159	0xbc2f45c2	-0.010697784
160	0x3e382608	0.17983258
161	0x3a2ed10b	0.0006668723
162	0xbd82e8fe	-0.06392096
163	0xbd4d8aed	-0.050181318
164	0xbed7125a	-0.4200619
165	0xbd9d2936	-0.07673876
166	0xbc6ac231	-0.014328525
167	0xbe29b65b	-0.1657347
168	0xbe052bfe	-0.13005063
169	0xbdcac9aa	-0.099017456
170	0xbebe30fc	-0.37146747
171	0x3deca71d	0.11555312
172	0xbd68f2ba	-0.056872107
173	0x3df3dae3	0.11906984
174	0x3ea58fc7	0.32336256
175	0x3d04618c	0.03231959
176	0x3f05510e	0.52076805
177	0xbb87e04f	-0.0041466127
178	0xbdd34577	-0.10315984
179	0xbe90124e	-0.28138965
180	0xbe18ed63	-0.14934306
181	0x3e1f6f3a	0.15569773
182	0x3e8297aa	0.25506335
183	0x3d9f7102	0.077852264
184	0x3d7cd1df	0.061723586
185	0xbd93eafb	-0.07222553
186	0xbdefe4e6	-0.11713581
187	0xbe34da2f	-0.17661355
188	0xbe823eb0	-0.25438452
189	0x3e5afb1c	0.21384853
190	0xbed05756	-0.40691632
191	0x3de7ae7c	0.11312577
192	0xbe97cfa0	-0.29650593
193	0x3dcb7ae6	0.099355504
194	0xbdd49753	-0.10380425
195	0xbe816f68	-0.2528031
196	0x3e74e229	0.23914398
197	0x3d26d96b	0.04073469
198	0xbea64469	-0.32474068
199	0xbece423c	-0.40284908
200	0xbcd19dc2	-0.02558792
201	0xbf1c2c17	-0.61004776
202	0x3e74e4e3	0.23915438
203	0xbcc8ca66	-0.024510574
204	0xbe66fd52	-0.22557572
205	0xbd9a4e54	-0.07534471
206	0xbe0a4f77	-0.13506876
207	0x3e9c6a87	0.30550024
208	0x3d88b476	0.06675045
209	0x3e871732	0.26384884
210	0x3e78dbb1	0.24302556
211	0x3e18a937	0.149083
212	0xbe34eff2	-0.17669657
213	0x3ef0d410	0.4703679
214	0x3e86d42e	0.26333755
215	0xbd729862	-0.059227355
216	0x3e7b9078	0.24566829
217	0xbd91c19b	-0.071170054
218	0x3ec1891c	0.3779992
219	0xbe11d41c	-0.1424107
220	0x3c2213cc	0.009892415
221	0x3dc0db34	0.0941681
222	0xbe88e351	-0.2673593
223	0xbe04c0c7	-0.12964164
224	0x3e5c62af	0.2152202
225	0xbccd631e	-0.025071677
226	0xbd6143c9	-0.054996286
227	0x3d3f03fd	0.046634663
228	0xbd1eb4c2	-0.038746603
229	0xbae2aba9	-0.001729359
230	0xbcb6f2e9	-0.022332625
231	0x3d207dff	0.03918266
232	0xb95d12a3	-0.00021083145
233	0xbd30603e	-0.043060534
234	0x3e162d9d	0.14665838
235	0xbe4a0484	-0.19728285
236	0xbd3dfc2f	-0.04638308
237	0x3df97f18	0.12182444
238	0x3e3d202b	0.18469302
239	0xbed9e6d4	-0.4255892
240	0x3e136338	0.14393318
241	0x3ca06d9f	0.019583521
242	0xbe01d043	-0.12677102
243	0xbd54e0d1	-0.051972214
244	0x3d3bf34c	0.045886323
245	0x3cb66cde	0.022268709
246	0xbcfc0249	-0.030762808
247	0x3bd91c40	0.006625682
248	0x3cbaa797	0.022784991
249	0x3d85454b	0.06507357
250	0x3ba9ad76	0.005178149
251	0xbc260141	-0.010132135
252	0x3e18c47e	0.14918706
253	0x3d9b657a	0.075877145
254	0xbe3c2e73	-0.18377094
255	0x3e8d7786	0.27630252

b1.bias f4 [32]
0	0xbefdf0a8	-0.4959767
1	0xbbe18b38	-0.0068830512
2	0x3e356402	0.17713931
3	0xbe487d25	-0.19578989
4	0xbe82f3cd	-0.2557663
5	0xbe60b359	-0.21943416
6	0xbd84c4b6	-0.06482832
7	0x3ea72ddb	0.32652172
8	0xbe02f9c8	-0.12790596
9	0x3e18abb1	0.14909245
10	0xbea11a33	-0.314653
11	0xbe1eb0cc	-0.1549713
12	0xbec644c6	-0.38724345
13	0xbebaa59f	-0.36454484
14	0xbdae495e	-0.085100874
15	0x3e1c3c0e	0.15257284
16	0xbe07a9c8	-0.1324836
17	0xbdf1ed4f	-0.11812841
18	0xbaf978ef	-0.0019033233
19	0xbe0f4be0	-0.13993788
20	0xbea2e683	-0.3181649
21	0x3db002d0	0.085942864
22	0xbeb3f2fa	-0.35146314
23	0x3ea77d1d	0.3271264
24	0x3e60aef5	0.21941741
25	0x3e9b1cbc	0.3029536
26	0xbe3aa8f1	-0.18228509
27	0x3db0f643	0.08640721
28	0x3e053a04	0.13010412
29	0xbd5dba29	-0.054132614
30	0xbe046eb2	-0.12932852
31	0xbd7b96db	-0.061423164

b2.weight f4 [32, 32, 3, 3]
0	0x3e93fce7	0.28903887
1	0xbe014bda	-0.12626591
2	0x3da060ea	0.07830985
3	0x3e8f9278	0.28041434
4	0xbe52df73	-0.20593052
5	0xbe8d9c83	-0.2765847
6	0xbe9a9e8a	-0.3019908
7	0x3e7d22f8	0.24720371
8	0xbec053b5	-0.37563863
9	0x3dc7071f	0.09718155
10	0x3dae3e79	0.085080095
11	0xbc683ad2	-0.01417418
12	0xbd4a26cb	-0.049353402
13	0x3e19d8cd	0.15024109
14	0xbdf935bc	-0.12168452
15	0x3e858d8a	0.26084548
16	0x3db95a4e	0.090504274
17	0xbbf5559a	-0.007487011
18	0xbf1867a8	-0.59533167
19	0x3e1c1fbe	0.15246484
20	0x3e843285	0.25819793
21	0x3d4aa3b8	0.04947254
22	0xbe9f3c59	-0.3110073
23	0x3d6b2df5	0.057416875
24	0xbea03998	-0.3129394
25	0x3ca825e6	0.020525884
26	0x3d923ad2	0.07140125
27	0x3e6d702e	0.23187324
28	0xbdffcd50	-0.12490332
29	0x3d690109	0.056885753
30	0x3ea43786	0.3207361
31	0xbec1f9bf	-0.37885854
32	0xbe00ce5b	-0.12578718
33	0x3f0a0490	0.5391321
34	0xbea25387	-0.3170435
35	0xbe8c7293	-0.27431163
36	0xbebfad7c	-0.37437046
37	0xbe42e744	-0.19033533
38	0x3d5dcc2a	0.054149784
39	0xbe4de97f	-0.20108603
40	0xbb992039	-0.0046730307
41	0xbf01e350	-0.50737476
42	0xbd30a2e3	-0.04312409
43	0xbe32e576	-0.17470345
44	0x3e61ccbd	0.22050758
45	0xbe82fd01	-0.25583652
46	0x3c972747	0.018451346
47	0x3bd484a4	0.0064855386
48	0x3d56ce03	0.05244256
49	0x3dabd39e	0.08389972
50	0xbecf5a0a	-0.40498382
51	0x3e20c25d	0.15699144
52	0xbdb3704d	-0.08761654
53	0xbc1a7842	-0.009428086
54	0x3e078607	0.13234721
55	0x3d85f117	0.06540125
56	0x3e64ba2a	0.22336641
57	0x3eaf6fa0	0.3426485
58	0xbd06f270	-0.03294605
59	0x3ed0a3fc	0.4075011
60	0xbe61bf14	-0.22045547
61	0xbe7e6e72	-0.24846819
62	0x3dabefec	0.08395371
63	0x3e8e6f91	0.27819493
64	0xbe422c61	-0.18962242
65	0x3e199cc5	0.15001209
66	0xbebb83e9	-0.36624077
67	0xbe81d518	-0.2535789
68	0xbed2c81e	-0.41168302
69	0x3e9efd49	0.31052616
70	0xbe0993d7	-0.13435303
71	0x3e096646	0.1341792
72	0x3e0b3d81	0.1359768
73	0x3e322d32	0.17400053
74	0x3f0078a3	0.5018408
75	0xbefee0f1	-0.49780992
76	0xbe6fca30	-0.23416972
77	0xbe31c230	-0.17359233
78	0x3ec813e9	0.3907769
79	0xbe08bcce	-0.13353273
80	0xbe102ef0	-0.14080405
81	0xbe4445c4	-0.19167238
82	0x3e095f06	0.13415155
83	0x3d774d67	0.06037655
84	0xbe8a06b3	-0.26958236
85	0xbefc0f19	-0.4923027
86	0xbd303e4b	-0.043028157
87	0xbe03accb	-0.12858884
88	0x3ea3f39a	0.3202179
89	0xbe828cd9	-0.25498083
90	0x3ec9c4cb	0.39407954
91	0xbf2ac5a7	-0.66707844
92	0xbe06538a	-0.13117805
93	0xbd9ccb0c	-0.076559156
94	0xbdd037b6	-0.10166876
95	0xbe11490f	-0.14188026
96	0xbddbe0ac	-0.10736212
97	0x3d9f30fc	0.07773015
98	0x3db51fb1	0.08843935
99	0x3e37341f	0.17890976
100	0xbe21fe58	-0.1581968
101	0xbe017400	-0.12641907
102	0x3dce95dc	0.10087177
103	0xbe28a535	-0.16469271
104	0xbe2add7d	-0.16686054
105	0x3e0b78f8	0.13620365
106	0xbe159e80	-0.14611244
107	0x3de26258	0.11053914
108	0xbe88a732	-0.2669006
109	0xbd4850a7	-0.04890504
110	0xbd131bcd	-0.035915185
111	0x3be5c8b7	0.0070124525
112	0x3d23c0a9	0.039978657
113	0x3e005dd7	0.12535797
114	0xbeff85b0	-0.49906683
115	0x3db70b33	0.08937683
116	0xbd3026a4	-0.0430056
117	0xbdf9b84e	-0.121933565
118	0x3dbdcea0	0.09267926
119	0xbd0e584f	-0.034752186
120	0x3de52166	0.11188011
121	0xbde6db12	-0.11272253
122	0xbefd2f0e	-0.49449962
123	0xbd12ce2b	-0.03584115
124	0xbdfcea33	-0.123493575
125	0xbec94fe5	-0.39318767
126	0xbe8e0056	-0.2773463
127	0xbec08585	-0.37601867
128	0xbe96f7a5	-0.29485813
129	0xbe185ab2	-0.14878348
130	0xbdc49b00	-0.095998764
131	0xbf0bd008	-0.54614305
132	0x3e34c4ce	0.176532
133	0x3c9b85d9	0.018984722
134	0x3de43d0d	0.11144457
135	0x3e8d8bbe	0.27645677
136	0xbdbc084d	-0.09181271
137	0x3ea1150f	0.3146138
138	0x3dc23911	0.09483541
139	0xbe4d9298	-0.20075452
140	0x3e87db0a	0.265343
141	0xbe950ead	-0.2911276
142	0xbca10952	-0.019657765
143	0x3e7352ba	0.23762026
144	0x3e59a0c4	0.21252733
145	0xbe2f1de0	-0.1710124
146	0x3dcab074	0.09896937
147	0x3e127fa4	0.14306504
148	0x3e873ef3	0.26415214
149	0xbc95ec22	-0.018301073
150	0x3dc27e87	0.094967894
151	0x3e21f24f	0.1581509
152	0xbe0a09d6	-0.13480315
153	0xbd662ea2	-0.056196816
154	0x3c837662	0.01604766
155	0xbbcf7073	-0.0063305437
156	0x3c0bd3d4	0.0085343905
157	0x3d530ec3	0.05152775
158	0x3baa2158	0.005191963
159	0xbcbd9b1c	-0.023145251
160	0xbd26d679	-0.04073188
161	0x3d24f3c3	0.04027153
162	0x3d59b9b8	0.05315563
163	0xbd18c1ed	-0.037294317
164	0x3d81b3fe	0.06333159
165	0x3d92a992	0.07161249
166	0xbd238124	-0.03991808
167	0xbe93fcca	-0.289038
168	0xbc8c27c1	-0.0171088
169	0x3d527c97	0.05138835
170	0x3e2ce5e6	0.16884574
171	0xbd83e274	-0.06439677
172	0xbe1abca7	-0.15111028
173	0x3de6e238	0.112736166
174	0xbe4279ef	-0.18991826
175	0xbe422632	-0.18959883
176	0x3cfd2eba	0.03090607
177	0xbeb48fc2	-0.35265929
178	0xbeb154ab	-0.3463491
179	0x3eeafe40	0.45897102
180	0x3e0e0a54	0.13871127
181	0xbe145774	-0.14486486
182	0x3f0e5fdd	0.55615026
183	0x3ce93e2e	0.028472032
184	0xbde31c0e	-0.110893354
185	0xbd3bb5d8	-0.045827717
186	0x3e933486	0.2875101
187	0xbe7520f4	-0.23938352
188	0x3e6d4710	0.2317164
189	0x3ce456a1	0.02787334
190	0x3d0c47ee	0.034248285
191	0xbd55458c	-0.05206828
192	0xbe246622	-0.16054586
193	0xbf18a382	-0.59624493
194	0xbeccb9ad	-0.3998541
195	0xbe410024	-0.1884771
196	0xbe0770ba	-0.13226596
197	0x3e45050e	0.1924021
198	0xbee7595b	-0.4518536
199	0x3e58e69e	0.21181723
200	0x3d16af7d	0.036788452
201	0xbdf2b419	-0.11850757
202	0xbe01a5f6	-0.12660965
203	0xbec7a7c8	-0.38995194
204	0x3dbaace7	0.0911501
205	0xbe89648e	-0.2683453
206	0xbee27898	-0.4423263
207	0xbd9b3966	-0.07579307
208	0xbe66b938	-0.22531593
209	0x3e9d63a5	0.30740085
210	0x3ebf230f	0.37331435
211	0xbe2cf246	-0.16889295
212	0x3c839385	0.016061554
213	0xbdd4bf1a	-0.10388012
214	0x3e09c6ea	0.13454786
215	0xbe70dc60	-0.23521566
216	0xbd5951b5	-0.053056438
217	0xbcaff772	-0.021480296
218	0xbddd7d6d	-0.10814939
219	0x3d5e0df2	0.054212518
220	0xbe91ea35	-0.28498998
221	0x3dd10d7b	0.10207649
222	0xbeb652fd	-0.3561019
223	0xbd6d7633	-0.05797405
224	0xbda90742	-0.082533374
225	0xbdedf946	-0.11619811
226	0xbe0919e3	-0.13388781
227	0xbd4349cf	-0.04767781
228	0xbda25b2b	-0.07927545
229	0xbf6e4f98	-0.930902
230	0xbd9fc11e	-0.07800506
231	0xbe1d56d0	-0.15365148
232	0x3daadc58	0.083428085
233	0xbe1d4f14	-0.15362197
234	0x3eda5900	0.42646027
235	0x3e3a00a7	0.18164311
236	0xbe9959a2	-0.29951197
237	0xbcb71f59	-0.022353815
238	0x3c07ae93	0.008281368
239	0x3c87e339	0.01658784
240	0xbd95c4ad	-0.073129036
241	0x3d60b654	0.05486138
242	0xbdfba0cc	-0.12286529
243	0xbd447742	-0.047965296
244	0x3e5a31b1	0.21308018
245	0x3e15e78e	0.14639112
246	0x3ea9b1dd	0.3314351
247	0x3dc808e1	0.097673185
248	0x3e413de5	0.18871267
249	0xbdeac9f2	-0.11464299
250	0xbe7d7a56	-0.24753699
251	0xbe262cef	-0.16228078
252	0xbf00d139	-0.5031925
253	0x3c9f0c92	0.019415174
254	0x3d6b09c0	0.057382345
255	0xbe53f426	-0.20698604

b2.bias f4 [32]
0	0xbe79c901	-0.24393083
1	0xbd9cb905	-0.07652477
2	0xbd1c01bc	-0.03808759
3	0xbebcba21	-0.36860755
4	0x3e6516e3	0.22372012
5	0xbe27434e	-0.16334268
6	0x3dd991db	0.10623523
7	0xbd0c7504	-0.034291282
8	0x3d453da0	0.048154473
9	0x3e0d8863	0.13821559
10	0x3eb36a93	0.35042247
11	0x3eb472d8	0.3524387
12	0xbdb8048d	-0.08985243
13	0x3c83a1f0	0.016068429
14	0xbeef5f7e	-0.46752542
15	0xbe6fec1d	-0.23429914
16	0xbed03db7	-0.40672085
17	0x3dd3d6a5	0.103436746
18	0xbea6341f	-0.3246164
19	0x3e53497b	0.206335
20	0x3dad905f	0.08474802
21	0xbe9e9366	-0.3097183
22	0xbe876401	-0.26443484
23	0x3c213917	0.009840271
24	0xbea63fb6	-0.32470483
25	0xbd70f439	-0.05882666
26	0x3d87cc8f	0.06630813
27	0x3ed50d5d	0.41611758
28	0xbe6c50aa	-0.23077646
29	0xbf220517	-0.63289016
30	0x3eac13e6	0.3360893
31	0xbeafd4f5	-0.3434216

b3.weight f4 [64, 32, 3, 3]
0	0x3d822c29	0.06356079
1	0x3e3f1251	0.18659331
2	0xbe9afbf4	-0.3027035
3	0x3bcb3fce	0.0062026745
4	0x3e27998e	0.1636717
5	0xbced31ca	-0.028954405
6	0x3e6bf6c6	0.23043355
7	0xbbcae188	-0.006191436
8	0xbdd1baf5	-0.10240737
9	0x3d960f52	0.07327141
10	0x3e314977	0.17313181
11	0x3d6640cd	0.056214143
12	0xbe6cdb63	-0.23130564
13	0xbdedf3de	-0.116187796
14	0x3dee7ef2	0.11645307
15	0x3eb8710f	0.36023757
16	0x3e09343b	0.1339883
17	0xbe01311c	-0.1261639
18	0xbe89597d	-0.26826087
19	0xbe4efa7c	-0.2021274
20	0x3e3adbea	0.18247953
21	0xbe0407b3	-0.12893562
22	0xbc9ac58c	-0.018893026
23	0xbe99c9b5	-0.30036703
24	0xbdb44255	-0.08801714
25	0x3eb5bc0d	0.35495034
26	0x3e6da881	0.2320881
27	0xbdca7982	-0.09886457
28	0xbe83126d	-0.25599995
29	0x3ea01386	0.31264895
30	0xbcbd4af8	-0.023107037
31	0xbe154863	-0.14578395
32	0x3ce3c0f3	0.027801966
33	0x3e3e7f59	0.18603267
34	0xbdecca99	-0.1156208
35	0xbeb2bbce	-0.3490891
36	0x3d4100de	0.047119968
37	0x3dd8c432	0.10584296
38	0xbdc45fa8	-0.095885575
39	0xbe5bf1f1	-0.21479012
40	0x3ed5f47a	0.41788083
41	0xbe82deca	-0.255606
42	0x3eaa8db2	0.3331123
43	0xbea0cdbc	-0.31406963
44	0x3edc98a9	0.4308522
45	0x3f082306	0.5317844
46	0x3eae97da	0.3410023
47	0xbd40003c	-0.046875224
48	0xbeadbfb7	-0.3393533
49	0x3e0fc883	0.14041333
50	0xbd57f86c	-0.052727148
51	0x3e669358	0.22517145
52	0xbddc79cb	-0.10765418
53	0xbe0d2fce	-0.13787767
54	0x3ec5775f	0.38567635
55	0x3e1081a7	0.14111958
56	0x3e802ae3	0.2503272
57	0x3d7e0b1d	0.062022317
58	0xbdcd2bd6	-0.10018127
59	0x3cd07a43	0.025448924
60	0x3e3b7e14	0.18309814
61	0x3dd5de46	0.10442786
62	0xbe14657d	-0.1449184
63	0xbd02aaca	-0.03190116
64	0x3dd3a75d	0.103346564
65	0xbe1bc0db	-0.15210287
66	0xbc9b02a2	-0.018922154
67	0xbe3cf491	-0.1845267
68	0x3d3b2b3d	0.045695532
69	0xbdff7058	-0.124726
70	0x3e8ea9e6	0.27863997
71	0x3f45d5e6	0.7727951
72	0xbee0b900	-0.43891144
73	0x3e9c63c7	0.30544874
74	0x3d99c2ff	0.07507896
75	0x3cd974aa	0.026544888
76	0x3ebf2c88	0.37338662
77	0xbe884c19	-0.26620558
78	0xbe5f2a4a	-0.21793476
79	0x3e86d193	0.26331767
80	0x3db5a81c	0.08869955
81	0xbf191ec9	-0.598126
82	0xbe7c5a64	-0.24643856
83	0x3d4c0b90	0.049815714
84	0x3db34ed9	0.08755273
85	0x3d575807	0.052574184
86	0xbd95956d	-0.07303891
87	0x3e80296d	0.25031605
88	0x3d71c6f3	0.059027623
89	0x3e8efbfb	0.2792662
90	0xbe892506	-0.2678606
91	0xbe8b58aa	-0.27216083
92	0xbe29ce69	-0.16582645
93	0x3f07984d	0.5296677
94	0x3f0c7df3	0.54879683
95	0x3e5c6321	0.2152219
96	0x3e00d532	0.12581328
97	0x3e832483	0.25613794
98	0x3b149a34	0.002267492
99	0x3ef0b895	0.47015825
100	0x3e1dff52	0.15429428
101	0x3e46a813	0.19400053
102	0xbe52d435	-0.20588763
103	0x3e96c106	0.2944414
104	0x3c6b4f38	0.014362149
105	0x3e8f9daa	0.28049976
106	0x3f0d361e	0.551607
107	0xbdca916f	-0.098910205
108	0x3d986397	0.0744087
109	0xbeb5d627	-0.35514948
110	0xbda010fc	-0.078157395
111	0xbee561cc	-0.44801176
112	0xbec1504e	-0.3775658
113	0x3c49dba9	0.0123204375
114	0xbcd70b10	-0.026250392
115	0x3deca998	0.11555785
116	0x3e0f49d6	0.1399301
117	0xbef75690	-0.4830823
118	0xbdd072a5	-0.10178117
119	0xbe194d3d	-0.1497087
120	0xbd5125bf	-0.051061388
121	0x3e8dd6a5	0.27702823
122	0xbdee7c0d	-0.116447546
123	0x3dc29a3c	0.09502074
124	0xbe29344a	-0.16523853
125	0xbde9b792	-0.114119664
126	0xbeb9e1a7	-0.36304972
127	0xbdb5467d	-0.08851335
128	0xbe896a55	-0.26838937
129	0xbf211e87	-0.62937206
130	0xbe47eb7a	-0.19523421
131	0xbe7c3ee9	-0.24633373
132	0x3e3c742f	0.18403696
133	0xbe47a3e4	-0.19496113
134	0x3db4926e	0.08816992
135	0xbd22dbf3	-0.03976054
136	0x3eb41592	0.35172707
137	0x3e6d5d93	0.23180227
138	0xbe20cd2e	-0.1570327
139	0xbeeea43e	-0.46609682
140	0x3e81acf6	0.2532727
141	0x3e8225a7	0.2541935
142	0xbe21ec57	-0.15812813
143	0x3cf48f88	0.029853597
144	0x3e95319c	0.2913941
145	0xbe524835	-0.20535357
146	0xbe832fb7	-0.2562234
147	0xbef9b57b	-0.4877127
148	0xbd4f80a7	-0.0506598
149	0xbe0c8430	-0.137223
150	0x3f0555d4	0.5208409
151	0xbe06c15f	-0.13159703
152	0x3e909b9b	0.28243718
153	0x3d8dba96	0.06920354
154	0xbedd1924	-0.43183243
155	0xbe5aed31	-0.21379544
156	0xbcfb60d1	-0.030685814
157	0x3de98cef	0.11403834
158	0x3d150d14	0.036389425
159	0xbd17ab90	-0.03702885
160	0x3d92963e	0.07157563
161	0x3e4db5e0	0.20088911
162	0x3debf856	0.11521976
163	0x3e4b9c2c	0.19883794
164	0xbe9d49a6	-0.30720252
165	0xbdf2da27	-0.118580155
166	0xbe86886c	-0.26275957
167	0x3e7f0ffc	0.24908441
168	0xbde58b53	-0.112082146
169	0x3e8eb107	0.27869436
170	0x3adfd628	0.0017077373
171	0x3e8843b5	0.26614156
172	0x3c8dab7f	0.01729369
173	0xbc1320ca	-0.0089799855
174	0x3e3404ec	0.17580003
175	0x3cb19936	0.021679502
176	0xbe1a40e9	-0.15063824
177	0x3eb9c2e9	0.36281517
178	0x3edd6d4b	0.43247446
179	0x3e205e16	0.15660891
180	0x3e60547d	0.2190723
181	0xbdd3077f	-0.10304164
182	0x3e82614f	0.25464866
183	0xbe21fa30	-0.15818095
184	0xbdf28073	-0.11840906
185	0xbc769cc7	-0.015052027
186	0x3e70a6c9	0.23501123
187	0x3d98a1d6	0.07452743
188	0x3dc4b811	0.096054204
189	0x3dbd92f4	0.09256545
190	0x3c83008f	0.015991477
191	0xbe060638	-0.1308831
192	0xbde68ccb	-0.11257323
193	0xbe582210	-0.21106744
194	0x3e0d3446	0.13789472
195	0x3e30b3e2	0.1725612
196	0xbe467653	-0.19381075
197	0x3e30261e	0.1720204
198	0xbe1b430b	-0.15162294
199	0xbc3ba2e5	-0.011452411
200	0xbdb71f8d	-0.08941565
201	0xbe8e4702	-0.2778855
202	0x3d414978	0.047189206
203	0x3d26b516	0.04070004
204	0xbeaaf660	-0.33391094
205	0xbda68cc3	-0.08132317
206	0xbeb70f64	-0.3575393
207	0x3e218f07	0.15777217
208	0xbe763059	-0.2404188
209	0x3dd75ff2	0.10516347
210	0x3cac4ba4	0.021032162
211	0x3e763dfc	0.24047083
212	0x3dde2eb6	0.10848753
213	0x3f0a652b	0.5406062
214	0xbd9108a3	-0.070817254
215	0xbd5bdd84	-0.05367805
216	0x3dedf292	0.11618532
217	0xbd3a6b21	-0.045512322
218	0xbcfb185a	-0.03065126
219	0x3d0df4b8	0.03465721
220	0x3e8c2525	0.2737209
221	0xbe5d5392	-0.21613911
222	0xbd008e40	-0.03138566
223	0xbe05fd26	-0.1308485
224	0x3e1f9dfa	0.15587607
225	0xbd65d377	-0.05610987
226	0xbe2483d0	-0.16065907
227	0xbe78ef87	-0.24310122
228	0x3f0c9142	0.54909146
229	0x3eef124d	0.4669365
230	0xbecab478	-0.39590812
231	0x3df8c1dd	0.121463515
232	0xbcfd9029	-0.03095253
233	0x3f102587	0.5630726
234	0xbec4e49f	-0.38455674
235	0x3e200a74	0.15628988
236	0xbdb8c960	-0.09022784
237	0xbce5e6de	-0.028064188
238	0xbdce5448	-0.10074669
239	0x3e453c4a	0.1926128
240	0x3e829b8e	0.25509304
241	0x3def857c	0.11695382
242	0x3f234b3c	0.63786674
243	0xbd09f0e7	-0.033677008
244	0x3e121df0	0.14269233
245	0xbcd047e5	-0.025424907
246	0xbe1ca194	-0.15296012
247	0x3dfdbc7a	0.12389465
248	0xbe1ef377	-0.15522562
249	0xbe0b71f8	-0.13617694
250	0x3e2ee5be	0.17079827
251	0xbdde6e0b	-0.10860833
252	0x3e89fb20	0.26949406
253	0x3e19b2da	0.15009633
254	0xbd835ff3	-0.06414785
255	0x3d62268a	0.055212535

b3.bias f4 [64]
0	0x3cf4bc57	0.029874964
1	0xbe18e825	-0.14932306
2	0xbdadb688	-0.08482081
3	0x3dd41de7	0.10357266
4	0xbd8a7f89	-0.06762607
5	0xbb0243d8	-0.0019876864
6	0xbcedd56a	-0.029032428
7	0xbdd23434	-0.10263863
8	0x3e0c5558	0.13704431
9	0x3e8918fe	0.2677688
10	0x3e629f61	0.2213111
11	0xbd861b57	-0.065481834
12	0xbc58857e	-0.013215421
13	0x3c134da9	0.008990684
14	0x3e5f4278	0.218027
15	0x3bd8672e	0.006604097
16	0xbd71bb7f	-0.0590167
17	0xbca67437	-0.020319087
18	0xbdc82c43	-0.09774067
19	0xbd643d3a	-0.055722453
20	0x3e03b562	0.12862161
21	0xbe03d686	-0.12874803
22	0x3e2bf6fc	0.16793436
23	0x3da1df6f	0.07903945
24	0xbe4bd12a	-0.19904009
25	0xbe0a777f	-0.13522147
26	0xbdf17115	-0.11789147
27	0x3dc5e889	0.09663493
28	0xbdcc72a0	-0.099828005
29	0x3c8dace2	0.017294351
30	0x3e48348f	0.195513
31	0xbdef9c28	-0.11699706
32	0x3e0bea1a	0.13663521
33	0x3cfe44a6	0.031038594
34	0xbe56e9aa	-0.20987573
35	0xbe2c139d	-0.16804357
36	0xbd60f0dd	-0.054917205
37	0xbd57c93b	-0.052682143
38	0xbe33ef0f	-0.17571662
39	0x3ef25a65	0.4733459
40	0xbe072498	-0.13197553
41	0x3c046339	0.008080297
42	0xbd8240be	-0.06360005
43	0xbe197661	-0.14986564
44	0xbb93142a	-0.0044884877
45	0xbcc53908	-0.024075046
46	0xbd1609fc	-0.036630616
47	0xbe775a1b	-0.24155466
48	0xbc462be0	-0.012095422
49	0xbdf0e548	-0.11762482
50	0x3c9cf9b4	0.019162036
51	0x3d1eb599	0.038747404
52	0xbdab1159	-0.08352918
53	0x3d66bbee	0.056331567
54	0x3e042073	0.12903003
55	0x3b00eb33	0.001967144
56	0xbdb4b239	-0.08823056
57	0xbad8b288	-0.0016532699
58	0xbd9aafc1	-0.07553054
59	0xbe0a5360	-0.13508368
60	0xbd9799a7	-0.07402354
61	0xbe7d548d	-0.24739285
62	0xbdefc78e	-0.11707984
63	0xbda945bf	-0.08265256
